python/11-deepLearning/03-regression/logistic_regression/model.ckpt (torch_old, 31928 bytes, 2 tensors)

weight f4 [10, 784]
0	0xbb6f9170	-0.0036555193
1	0xbc825483	-0.015909439
2	0x3cd27346	0.025689732
3	0xbd036134	-0.032075122
4	0x3cbd2eb6	0.023093563
5	0x3cef3fae	0.02920517
6	0x3cea57f6	0.028606396
7	0x3924c100	0.00015712157
8	0xbca1d32a	-0.019754011
9	0x3cf8f3ee	0.030389752
10	0x3cc3798c	0.023861669
11	0x3c1ab388	0.009442218
12	0x3c871974	0.01649163
13	0xbd0fb514	-0.0350848
14	0xbc4e8418	-0.012604736
15	0x3cd681a4	0.026184864
16	0xbcd85d7a	-0.02641176
17	0xbc4d9b0e	-0.012549175
18	0x3ca95ffe	0.020675655
19	0x3a8b69e0	0.0010636412
20	0x3ccd21c2	0.025040511
21	0x3bd9d1b0	0.006647311
22	0x3c90587c	0.017620318
23	0xbc740f40	-0.014896214
24	0x3cec635e	0.028855976
25	0x3caf349a	0.021387387
26	0xbc4ce7a6	-0.012506401
27	0x3c3fe048	0.011711188
28	0xbb938ba4	-0.0045027304
29	0xbcc93b65	-0.024564454
30	0xbcbc8113	-0.023010766
31	0xbcc734ac	-0.024317108
32	0x3cde7f22	0.027160231
33	0xbc4537bd	-0.012037215
34	0xbc5d2d33	-0.013499546
35	0x3cc1b9d0	0.023648173
36	0x3d020174	0.031739667
37	0xbb97c186	-0.004631224
38	0xbcf37571	-0.029719086
39	0x3ca55b93	0.020185268
40	0xbd122be2	-0.03568638
41	0x3c346f59	0.0110128755
42	0xbc3d546b	-0.011555771
43	0x3be7018b	0.0070497445
44	0xbcc857d9	-0.024455952
45	0x3c3dccd1	0.011584477
46	0xbcf4983b	-0.029857745
47	0x3c9d5737	0.019206626
48	0xb88c7425	-6.697354e-05
49	0x3cba8236	0.022767168
50	0xbc83c4f0	-0.016085118
51	0xbb0990fb	-0.0020990956
52	0xbca8b925	-0.020596096
53	0x3c40bb94	0.011763472
54	0xbc496d58	-0.012294136
55	0x3c00a940	0.007852852
56	0xbc87ba97	-0.016568465
57	0xbd0c10d5	-0.03419574
58	0xbcf8b8da	-0.030361582
59	0xbce07960	-0.027401626
60	0xbca1dd1f	-0.019758759
61	0xbcf59482	-0.02997804
62	0x3c549781	0.0129755745
63	0xbade8dcc	-0.0016979515
64	0x3c410dee	0.011783106
65	0xbd094df5	-0.03352161
66	0xbd133678	-0.035940617
67	0x3a1c7b53	0.00059693045
68	0xbccf7741	-0.02532542
69	0x3c41206a	0.011787513
70	0x3c38f767	0.011289454
71	0x3cf2f950	0.029659897
72	0x3ce6872f	0.028140632
73	0xbb305ae8	-0.0026909653
74	0xbbfc0c08	-0.007691864
75	0x3d047d78	0.03234622
76	0xbb705b63	-0.0036675564
77	0x3adadaa4	0.001669724
78	0x3c74cd8f	0.014941587
79	0x3c1a11e9	0.009403684
80	0xbc03ddba	-0.008048469
81	0xbca1621a	-0.019700099
82	0x3d09c27f	0.03363275
83	0x3d010375	0.031497438
84	0xbccc9d63	-0.024977392
85	0xbcc22af3	-0.02370212
86	0x3c8d4b6c	0.017247878
87	0xbcf2fb79	-0.029660927
88	0xbc8e7470	-0.017389506
89	0xbc9037b3	-0.017604684
90	0x3d022012	0.031768866
91	0x3bc6f52c	0.0060717072
92	0xbd0f3af3	-0.034968328
93	0xbc1e4c93	-0.009661811
94	0x3a8acfcd	0.0010590494
95	0xbcb333c1	-0.021875264
96	0xbaf8fa8d	-0.0018995568
97	0x3ca8e791	0.020618232
98	0xbc70a872	-0.014688598
99	0x3cbf53a8	0.02335532
100	0x3bf8170a	0.007571106
101	0x3c3f3d72	0.011672365
102	0x3b3e2101	0.002901137
103	0xbcbb0f32	-0.022834394
104	0xbb9e3779	-0.00482839
105	0x39dfcb81	0.00042685497
106	0x3c9997ca	0.018749136
107	0xbbce8ea3	-0.0063036247
108	0x3a8875b6	0.0010411057
109	0x3c4fc817	0.0126819825
110	0xbcef769c	-0.029231362
111	0xbd0a5cf3	-0.03378005
112	0xbcf9f96a	-0.030514438
113	0x3c75f812	0.015012758
114	0x3c957064	0.018242069
115	0xbc73e9db	-0.014887298
116	0x3bd3f114	0.0064679477
117	0xbc9eec5a	-0.01939981
118	0xbcd9e8f7	-0.026600344
119	0xbc8fd817	-0.017559094
120	0xbcb90d9a	-0.022589494
121	0x3cf86292	0.03032044
122	0x3bdc4109	0.00672162
123	0xbc976f75	-0.018485764
124	0xbcd7c2e2	-0.026338045
125	0xbcfa0903	-0.030521875
126	0xbc24ac37	-0.010050825
127	0x3ca410dd	0.020027572
128	0xbcb135ba	-0.021632064
129	0x3c85dd54	0.016340889
130	0xbbf2aaba	-0.007405606
131	0x3abe8722	0.0014536122
132	0x3b608acc	0.0034262417
133	0x3d025592	0.031819887
134	0x3cded2b1	0.027200075
135	0xbc8fdf2b	-0.01756247
136	0xbc86f6bb	-0.016475072
137	0x3c770a52	0.015078144
138	0xbc3d95c2	-0.01157135
139	0xbbff24b6	-0.0077863587
140	0x3d0d8813	0.0345536
141	0x3c682968	0.014170028
142	0x3c62151e	0.01379898
143	0xbb00bccf	-0.0019643789
144	0x3d0ed59d	0.034871686
145	0x3b9f3933	0.0048591136
146	0xbc160126	-0.009155547
147	0x3c4f8a9c	0.012667324
148	0xbd2330c5	-0.039841432
149	0x3bae65e1	0.0053222035
150	0xbb6fe7c7	-0.0036606656
151	0x3cbf6a1b	0.023366025
152	0xbc956cce	-0.018240359
153	0xbc6b806f	-0.014373883
154	0x3c7837e6	0.015150046
155	0x3c39075e	0.01129326
156	0x3d1fa082	0.03897143
157	0x3d39b8bd	0.045342196
158	0x3c3172a1	0.010830552
159	0x3d1f8d09	0.03895286
160	0x3cd281a2	0.02569658
161	0x3caf588f	0.021404533
162	0x3cf70ea4	0.030158348
163	0x3b8153d0	0.003946759
164	0xbcc825f6	-0.024432164
165	0x3c0863fd	0.00832462
166	0x3c1f4255	0.009720405
167	0xbcb42fd6	-0.021995466
168	0xbc78d4b8	-0.015187435
169	0xbc04c2d4	-0.008103091
170	0xbc9d2849	-0.019184249
171	0x3cc9149b	0.024545958
172	0xbcce1a50	-0.025159031
173	0xbcfb2dc7	-0.030661477
174	0xbcd81847	-0.026378764
175	0xbca8685b	-0.020557573
176	0xbaae5c7b	-0.0013302708
177	0xbd1502a0	-0.036379457
178	0xbc5a7e40	-0.013335764
179	0x3b8579ef	0.0040733735
180	0x3c0866f2	0.008325325
181	0x3c985903	0.018597132
182	0x3d64e0c7	0.055878427
183	0x3cd11b9b	0.025525859
184	0x3bd2089d	0.006409718
185	0x3d014682	0.031561382
186	0x3d8a9e75	0.067685045
187	0x3b7c528a	0.0038501346
188	0xbc53c499	-0.0129252905
189	0xbc0c54ed	-0.00856517
190	0xbb880380	-0.004150808
191	0xbd139852	-0.036033936
192	0x3c9d643a	0.01921283
193	0xbcd6f28c	-0.026238702
194	0xbc8b52f8	-0.017007336
195	0x3d0c3183	0.034226906
196	0xbc14188c	-0.009039056
197	0xbcbd4f0c	-0.023108982
198	0x3c7511a7	0.014957822
199	0x3a6017c7	0.0008548465
200	0x3bb52dba	0.0055291327
201	0xbd05ea9c	-0.032694444
202	0x3c6d959c	0.014501002
203	0x3c74dc17	0.014945052
204	0x3c64d677	0.013967148
205	0x3c8df924	0.017330714
206	0xbcfb8652	-0.030703697
207	0x3a7d2ff9	0.00096583326
208	0x3cffd782	0.031230692
209	0xbc69d523	-0.014272007
210	0x3d033af3	0.03203864
211	0x3d16f1ad	0.036851574
212	0x3a4fdcbc	0.00079293153
213	0x3bf84f5f	0.007577821
214	0x3c8274af	0.01592478
215	0x3bf84513	0.0075765937
216	0x3d4cdf30	0.050017536
217	0x3d387a5f	0.045038577
218	0x3ca371fc	0.019951813
219	0xbbf654d6	-0.0075174375
220	0xbc6d2554	-0.014474232
221	0x3c6ed32d	0.014576715
222	0x3cf9f9d8	0.030514643
223	0x3c68de7d	0.014213202
224	0xbbe5dbf9	-0.007014748
225	0xbce1eec5	-0.027579674
226	0xbcb984bd	-0.022646302
227	0x3c3538ab	0.011060874
228	0xbcdcaade	-0.026936945
229	0x3cddb3fc	0.027063362
230	0xbbc7f393	-0.0061020344
231	0xbce6c27f	-0.028168915
232	0xbca8c84e	-0.020603325
233	0xbd011ee9	-0.03152362
234	0x3d10c48c	0.03534369
235	0x3c00d60b	0.007863532
236	0xbc1781be	-0.009247242
237	0x3d161f8b	0.036651175
238	0x3c5750a4	0.013141785
239	0x3c06d4ad	0.008229417
240	0xbc166663	-0.009179684
241	0x3bcb574b	0.0062054745
242	0x3d0934f8	0.03349778
243	0x3cc2d1ca	0.023781676
244	0x3c6d52d4	0.01448508
245	0x3d716a67	0.058939364
246	0x3c9f5607	0.0194502
247	0x3d176052	0.036957093
248	0x3ad6d391	0.0016389956
249	0x3cab7610	0.02093032
250	0xbcdb553a	-0.026774038
251	0x3d0eb170	0.034837186
252	0x3d108c1c	0.03528987
253	0xbd0a3c39	-0.03374884
254	0x3c097eac	0.008392017
255	0xbcbe0ba8	-0.023198918

bias f4 [10]
0	0xbd4b7b99	-0.04967842
1	0x3d38a031	0.045074645
2	0xbc27f46f	-0.010251149
3	0xbcc88ad9	-0.02448027
4	0x3d10f825	0.0353929
5	0xb9ee78b9	-0.00045484843
6	0xbc300297	-0.010742805
7	0x3d4f7fd1	0.050659005
8	0xbbeb385d	-0.00717835
9	0x3c37d851	0.011221007
