python/11-deepLearning/04-net/cifar/model/cifar_net.pth (torch_old, 249602 bytes, 10 tensors)

conv1.weight f4 [6, 3, 5, 5]
0	0x3e7d07c0	0.24709988
1	0x3e6f740b	0.2338411
2	0xbc8ce2ef	-0.017198054
3	0x3dd82711	0.10554326
4	0x3dc5466d	0.09632573
5	0x3e78e0b2	0.24304464
6	0x3ec299e8	0.38008046
7	0x3f12fab6	0.57413805
8	0x3ed23530	0.41056204
9	0x3e85da4a	0.26143104
10	0xbe52de42	-0.20592597
11	0x3c95dfef	0.018295256
12	0x3eaac470	0.33352995
13	0x3e21642e	0.15760872
14	0x3e1a4dd6	0.15068755
15	0xbebaeb74	-0.3650776
16	0xbea6757b	-0.32511505
17	0xbeb75365	-0.35805812
18	0xbe8198b6	-0.25311822
19	0xbec9694a	-0.39338142
20	0xbead1cbb	-0.33810982
21	0xbef5a3c0	-0.47976494
22	0xbf1baf6f	-0.60814565
23	0xbece5b53	-0.4030405
24	0xbec7a916	-0.3899619
25	0xbdf34e1f	-0.11880135
26	0xbdd0bf81	-0.101927765
27	0xbe4d415f	-0.20044468
28	0xbea542d4	-0.32277548
29	0xbeab8654	-0.33500922
30	0x3da505e5	0.08057765
31	0x3e911507	0.28336355
32	0x3e5fed94	0.21867973
33	0x3e2c9fb9	0.16857804
34	0x3e4c17b1	0.19930913
35	0xbe7323fc	-0.23744196
36	0x3e0fd99c	0.14047855
37	0x3e906019	0.28198317
38	0x3e99e68e	0.30058712
39	0x3e9959d3	0.29951343
40	0xbd9fb727	-0.077986054
41	0xbe333d42	-0.17503837
42	0xbdb475de	-0.08811544
43	0x3d63d7bd	0.055625666
44	0xbe0b0165	-0.1357475
45	0x3d132cfd	0.035931576
46	0xbe0d2701	-0.1378441
47	0xbe66c90f	-0.22537635
48	0xbd08ccff	-0.033398625
49	0xbd800cd7	-0.06252449
50	0xbdfba35c	-0.12287018
51	0xbec55483	-0.3854104
52	0xbec56df6	-0.38560456
53	0xbefb2761	-0.4905348
54	0xbe94bb9c	-0.29049385
55	0x3d9a4ec7	0.07534557
56	0x3e813506	0.25235766
57	0x3dcb12d4	0.099157006
58	0x3e6069df	0.21915387
59	0xbb645864	-0.0034842724
60	0x3d91a6a1	0.0711186
61	0x3dc0bfa1	0.0941155
62	0x3ea119be	0.31464952
63	0x3eaec92b	0.34137854
64	0x3e7b1f6a	0.24523702
65	0x3d420692	0.047369547
66	0x3d983587	0.074320845
67	0xbbfb88e0	-0.007676229
68	0x3d51eec0	0.05125308
69	0x3db5dd2e	0.08880077
70	0x3df5ac5d	0.11995766
71	0x3e126d8c	0.14299601
72	0xbe24eae1	-0.16105224
73	0xbdab8a82	-0.08376028
74	0x3dbf4a91	0.09340394
75	0xbd13e787	-0.036109474
76	0x3d87e454	0.06635347
77	0x3e2cc9f7	0.16873918
78	0x3e02059e	0.12697455
79	0x3ed2f488	0.41202188
80	0xbe0fe17f	-0.14050864
81	0x3e01746f	0.12642072
82	0xbe172b32	-0.14762571
83	0xbe355cd9	-0.177112
84	0x3ecced94	0.40025008
85	0xbd4b5c65	-0.04964866
86	0x3e9e07b5	0.30865255
87	0xbd9ec37c	-0.077521294
88	0xbecb7cac	-0.39743555
89	0x3e4a28b6	0.19742092
90	0x3d1367cf	0.03598767
91	0x3e9e647b	0.30936036
92	0x3df137c8	0.117782176
93	0xbe8225b1	-0.2541938
94	0x3c9de2d0	0.019273192
95	0xbe221e85	-0.15831955
96	0x3e89e834	0.2693497
97	0xb9ef579e	-0.00045650912
98	0xbe5c4e1a	-0.21514168
99	0xbd0fd306	-0.035113357
100	0xb9ce53ef	-0.00039353917
101	0xbe4a3919	-0.19748344
102	0xbec9e4f1	-0.3943248
103	0xbed256c1	-0.41081813
104	0x3c839010	0.016059905
105	0x3e3fc017	0.1872562
106	0x3de92b7c	0.11385247
107	0xbec86491	-0.39139226
108	0xbf1c24e1	-0.6099377
109	0x3c4a2f69	0.012340405
110	0x3e45778c	0.19283885
111	0x3ecb7ac9	0.39742115
112	0xbe47da52	-0.19516876
113	0xbf45561e	-0.7708453
114	0xbd46d7ec	-0.048545763
115	0x3dfc2534	0.123117834
116	0x3f0253bf	0.50909036
117	0xbd363d64	-0.04449214
118	0xbf02fa76	-0.51163423
119	0xbc0885fb	-0.008332725
120	0x3d9b3460	0.07578349
121	0x3ed5e464	0.4177581
122	0x3d82b11c	0.06381437
123	0xbec19442	-0.37808424
124	0xbcd9c1d8	-0.02658169
125	0x3c51ad78	0.012797706
126	0xba928f3c	-0.0011181603
127	0xbe92df21	-0.2868586
128	0xbe09e598	-0.1346649
129	0x3e54f6bb	0.20797245
130	0x3e99614f	0.29957053
131	0x3e56c9d5	0.2097543
132	0xbea30640	-0.31840706
133	0xbefa3c76	-0.48874253
134	0x3e5f1843	0.21786599
135	0x3e69c8b1	0.22830464
136	0x3eda84a5	0.42679325
137	0xbe0df0ea	-0.13861433
138	0xbf0a43b5	-0.5400956
139	0x3c4d72bb	0.012539561
140	0x3d67bfaa	0.05657927
141	0x3ef1b3c5	0.47207466
142	0xbcd51043	-0.02600873
143	0xbef3f339	-0.47646502
144	0x3bfa8334	0.007645035
145	0x3cfd3c9e	0.030912694
146	0x3e853cac	0.2602285
147	0x3e4949bc	0.19657034
148	0xbe7dda91	-0.24790408
149	0xbc199457	-0.009373746
150	0xbe7ba5b5	-0.24574931
151	0x3de4ade8	0.111659825
152	0x3f0599c7	0.5218777
153	0x3d9d174e	0.07670461
154	0xbe2e6bfb	-0.17033379
155	0x3df5533f	0.119787686
156	0x3f0cb380	0.54961395
157	0x3e246a07	0.16056071
158	0xbf090cf4	-0.5353539
159	0xbe4e8d95	-0.20171197
160	0x3e614c65	0.22001798
161	0x3e024ab5	0.12723811
162	0xbecbad82	-0.39780813
163	0xbf33c96b	-0.70229214
164	0x3ed5514a	0.4166358
165	0x3d9d9477	0.07694333
166	0xbe6e7f8a	-0.2329084
167	0xbf06ba89	-0.5262838
168	0xbe0b325d	-0.13593431
169	0x3edeb840	0.43499947
170	0xbe26b894	-0.16281348
171	0xbe82cc93	-0.25546703
172	0xbd637def	-0.05554002
173	0x3e68915b	0.22711699
174	0x3de705ff	0.112804405
175	0xbe3bf05b	-0.18353407
176	0x3c046609	0.008080968
177	0x3e8eb60e	0.27873272
178	0xbd74d9fe	-0.059778206
179	0xbecd4c90	-0.40097475
180	0x3df96619	0.12177677
181	0x3ef1ad20	0.47202396
182	0x3dc4650e	0.09589587
183	0xbf18242e	-0.59430206
184	0xbe784fea	-0.24249235
185	0x3e71f7b4	0.23629647
186	0x3e8c65c4	0.2742139
187	0xbf021fdc	-0.50829864
188	0xbf0df056	-0.5544485
189	0x3f00f1d6	0.5036901
190	0x3c3e540b	0.011616717
191	0xbe2df8ea	-0.16989484
192	0xbed29dbf	-0.41135976
193	0x3d875eaf	0.06609856
194	0x3ed2ab89	0.41146496
195	0x3d9e1401	0.07718659
196	0x3cd8465f	0.026400743
197	0x3e7d740b	0.24751298
198	0x3ed66b86	0.4187891
199	0x3e0b6f79	0.13616742
200	0xbe31f60d	-0.17379017
201	0xbca80b4a	-0.020513196
202	0x3e4b40b2	0.19848898
203	0x3d22a978	0.0397124
204	0xbe80f477	-0.25186512
205	0x3d7c5441	0.06160379
206	0x3e750ab6	0.23929867
207	0x3e497c15	0.1967624
208	0xbed9dfbd	-0.4255351
209	0xbd960b5c	-0.073263854
210	0x3e582aff	0.21110152
211	0x3d3df558	0.046376556
212	0xbedaab67	-0.42708895
213	0xbf0a899e	-0.5411624
214	0x3ed4cc9f	0.41562364
215	0xbdd0130f	-0.10159885
216	0xbe6b0498	-0.22950971
217	0xbeb2d83e	-0.34930605
218	0x3dec2be3	0.11531808
219	0x3ed823a7	0.422147
220	0xbe13ee57	-0.14446388
221	0xbd9c1494	-0.076211125
222	0x3d9d898a	0.07692249
223	0x3e6a6c9b	0.22892992
224	0x39fe17d6	0.00048464414
225	0xbe5a9546	-0.21346006
226	0xbdd9b437	-0.106300764
227	0xbdd53d18	-0.10412043
228	0x3c8b76ec	0.01702448
229	0xbe3c934f	-0.18415569
230	0xbe807ba7	-0.2509434
231	0xbe9baecb	-0.30406794
232	0xbe9929fd	-0.29914847
233	0xbe9ddbed	-0.30831853
234	0xbe8f9006	-0.2803957
235	0x3d20f1a9	0.039292965
236	0xbe836268	-0.25661016
237	0xbec1fc2e	-0.3788771
238	0xbe3df534	-0.18550569
239	0xbd9ccca2	-0.07656218
240	0x3ed042f5	0.40676084
241	0x3f01831e	0.50590694
242	0x3ef11db2	0.47092968
243	0x3f109d56	0.56490076
244	0x3ecd6537	0.40116283
245	0x3eb2b1ff	0.34901425
246	0x3e863c9f	0.26218125
247	0x3ecf0a4c	0.40437543
248	0x3e675687	0.22591601
249	0x3eb23de6	0.3481285
250	0xbd24816b	-0.040162485
251	0x3dd7cd76	0.105372354
252	0x3e74c448	0.23903
253	0x3e26c59f	0.16286324
254	0x3dc58e4b	0.09646281
255	0x3c389d82	0.011268022

conv1.bias f4 [6]
0	0xbec056fc	-0.37566364
1	0xbeaab5fd	-0.3334197
2	0xbed4e16a	-0.41578227
3	0xbef4c0cb	-0.4780334
4	0x3e9697fe	0.29412836
5	0xbdb6257d	-0.08893869

conv2.weight f4 [16, 6, 5, 5]
0	0x3e77c16f	0.24194883
1	0x3e0e9cc3	0.13926987
2	0x3d79b865	0.060966868
3	0x3d155838	0.036461085
4	0xbd6891d3	-0.056779694
5	0x3e336344	0.17518336
6	0xbba047f5	-0.0048913904
7	0x3da882cf	0.08228075
8	0xbd15f728	-0.03661266
9	0xbe352b86	-0.17692384
10	0x3e95fbc1	0.29293635
11	0x3e251c3b	0.1612405
12	0x3de7d670	0.113201976
13	0xbd0cd13e	-0.034379236
14	0xbdc19e70	-0.09454048
15	0x3d9894c5	0.074502505
16	0x3e14ef2b	0.1454436
17	0x3e4848e8	0.19559062
18	0x3ccca808	0.024982467
19	0xbe48b615	-0.19600709
20	0xbe008950	-0.1255238
21	0x3bbdb081	0.005788863
22	0x3e86d470	0.26333952
23	0x3e352c3e	0.17692658
24	0xbd583004	-0.052780166
25	0x3e625938	0.22104347
26	0xbd07b0e3	-0.033127677
27	0xbd9a206e	-0.07525717
28	0x3bbaacbc	0.005696861
29	0xbd5dd058	-0.05415377
30	0x3e53d385	0.20686157
31	0x3c8a6722	0.01689488
32	0xbc97224a	-0.018448967
33	0xbe1bd9ee	-0.15219852
34	0xbc651ade	-0.013983456
35	0x3c16e844	0.00921065
36	0x3cd8841d	0.026430184
37	0xbd43eafc	-0.04783152
38	0xbba3490e	-0.004983074
39	0xbd397d22	-0.04528535
40	0xbd159dc2	-0.036527403
41	0xbcd1ac09	-0.025594728
42	0xbbb6f0b5	-0.0055828937
43	0xbdd8f294	-0.10593143
44	0xbdc06e24	-0.09396008
45	0xbd9d8e33	-0.07693138
46	0x3d391d47	0.045193937
47	0xbda61eff	-0.08111381
48	0xbe7568fa	-0.23965827
49	0xbe87f3ef	-0.26553294
50	0x3e8ff018	0.28112864
51	0x3e1a8089	0.15088095
52	0x3d6c402a	0.05767838
53	0xbe0e0675	-0.1386965
54	0xbe2c2d15	-0.16814072
55	0x3e86eadc	0.26351058
56	0x3d390295	0.045168478
57	0xbd30dcbe	-0.043179266
58	0xbe26b261	-0.16278984
59	0xbe8231bf	-0.25428578
60	0x3e8cc328	0.27492642
61	0xbd0b5c69	-0.034023676
62	0xbd0eb044	-0.03483607
63	0xbe17370e	-0.14767095
64	0xbe24ecdf	-0.16105984
65	0x3e021af1	0.1270559
66	0xbdd3beac	-0.10339102
67	0xbdcdc472	-0.100472346
68	0xbe211d28	-0.15733778
69	0xbe3166e2	-0.17324403
70	0x3e44ab00	0.19205856
71	0x3db5606b	0.08856281
72	0xbd401c4e	-0.046901993
73	0xbe56c8eb	-0.20975082
74	0xbee2c79b	-0.44292912
75	0xbe308248	-0.17237198
76	0xbd8ea556	-0.06965129
77	0x3db2d5fa	0.08732219
78	0x3de50dd1	0.11184276
79	0x3e4eb761	0.20187141
80	0xbdde5267	-0.10855561
81	0xbd3be645	-0.0458739
82	0xbda8488e	-0.08216964
83	0xbd7ddcdd	-0.06197821
84	0x3d86f446	0.0658956
85	0xbd6c9833	-0.057762336
86	0xbdd35651	-0.10319198
87	0xbda57076	-0.08078091
88	0xbd4eb9ad	-0.050470043
89	0xbd3b99fc	-0.045801148
90	0x3d29e113	0.041474413
91	0xbd19f12d	-0.03758352
92	0xbd09179f	-0.033469792
93	0xbd5a447a	-0.05328796
94	0x3d067b76	0.032832585
95	0x3dbc34dc	0.091897696
96	0x3b94ae39	0.0045373705
97	0xbc8710e4	-0.016487546
98	0xbd4b9ab3	-0.04970808
99	0x3d3ec3f1	0.046573583
100	0x3e1c931a	0.1529049
101	0xbdb47d48	-0.08812958
102	0xbe8e2571	-0.2776294
103	0xbe61a637	-0.22036062
104	0xbe5e1077	-0.21685968
105	0xbd6aa7be	-0.057288878
106	0xbdd49efe	-0.10381888
107	0xbbaa8d2a	-0.0052048163
108	0xbd2df1ed	-0.042467047
109	0xbd7e2967	-0.062051203
110	0xbe8056e5	-0.25066295
111	0xbde20d5f	-0.110377066
112	0x3d9c1570	0.076212764
113	0xbcc4d991	-0.024029525
114	0xbd50b976	-0.05095812
115	0xbd506cc7	-0.05088499
116	0xbd9ff94d	-0.07811222
117	0xbda46c2a	-0.08028443
118	0x3db4f74c	0.08836231
119	0x3d28989d	0.04116117
120	0xbd7642ad	-0.06012218
121	0x3cdc5e46	0.026900422
122	0x3e07fc20	0.13279772
123	0x3dfb5ba2	0.12273337
124	0x3e85f1ef	0.26161143
125	0xbe7b46da	-0.24538746
126	0xbe165d74	-0.14684087
127	0xbd20a5c6	-0.039220594
128	0xbd8c001b	-0.068359576
129	0x3db1b3ae	0.08676849
130	0xbe5bcf8e	-0.21465895
131	0xbda54a24	-0.08070782
132	0xbdc36b2c	-0.09541926
133	0xbc84fc25	-0.016233513
134	0x3dbb50cf	0.091462724
135	0xbe8e8145	-0.27833
136	0xbcad60d4	-0.021164335
137	0x3e24d366	0.16096267
138	0x3df7b035	0.12094156
139	0x3e310a96	0.17289194
140	0xbead3a15	-0.33833376
141	0xbc11950a	-0.008885631
142	0x3d6bc9e2	0.057565577
143	0x3db18bc2	0.08669235
144	0x3e55b8fb	0.20871346
145	0xbe9254b6	-0.28580254
146	0xbd4b650a	-0.049656905
147	0xbca8bd2d	-0.020598019
148	0x3e0e41ad	0.13892241
149	0x3ea595b5	0.3234078
150	0xbea817ce	-0.32830662
151	0xbebb87db	-0.36627087
152	0xbed2eba9	-0.4119542
153	0xbe816e03	-0.25279245
154	0xbe34ca5f	-0.17655323
155	0xbe9d99d7	-0.30781433
156	0xbec5392b	-0.38520178
157	0xbe58901d	-0.21148725
158	0xbe2ec11b	-0.17065851
159	0x3ca149aa	0.019688446
160	0xbdc088b7	-0.09401076
161	0x3d90573b	0.07047888
162	0x3d1ed7e7	0.03878012
163	0x3e01c161	0.12671424
164	0x3e8e0a6c	0.27742326
165	0xbb99d22e	-0.004694245
166	0x3e22b58e	0.1588957
167	0x3e9bc3f8	0.3042295
168	0x3e96c2b2	0.29445416
169	0x3e4287c6	0.18997106
170	0x3e6c77ac	0.23092526
171	0x3e1ca3fd	0.15296932
172	0x3e51b451	0.20478942
173	0x3d90a25e	0.07062219
174	0x3e0bab69	0.13639607
175	0x3e4b03d4	0.19825679
176	0xbdba50e6	-0.090974614
177	0x3e7a220b	0.24427049
178	0xbe1628a1	-0.14663936
179	0xbda1c96b	-0.078997456
180	0x3e4ad9f9	0.19809712
181	0xbb5898d0	-0.0033050068
182	0x3e3c2538	0.18373573
183	0xbd9fd885	-0.0780497
184	0xbca4ebfe	-0.020132061
185	0x3d4d9f51	0.050200764
186	0xbdc9c16a	-0.09851344
187	0x3dd602df	0.10449766
188	0xbe3016f7	-0.1719626
189	0xbc79aebc	-0.015239414
190	0x3c6443d6	0.013932189
191	0xbbd15d92	-0.0063893283
192	0x3dd31315	0.10306374
193	0xbcf2078e	-0.029544618
194	0xbd87996a	-0.06621058
195	0xbcd78264	-0.026307292
196	0xbdaa5b1f	-0.08318161
197	0x3c841f16	0.016128104
198	0xbe3b6e84	-0.18303877
199	0x3d05d37c	0.03267239
200	0x3b971490	0.0046106055
201	0xbd710506	-0.05884268
202	0x3d007a7d	0.031366814
203	0xbcf6c4da	-0.030123163
204	0xbd35f43c	-0.044422373
205	0x3c8a611f	0.016892014
206	0xbca52113	-0.020157373
207	0xbd018412	-0.031620093
208	0xbb42948b	-0.002969059
209	0xbd193aa0	-0.037409425
210	0x3dd97858	0.10618657
211	0x3d1afec3	0.037840616
212	0xbd388f2b	-0.04505841
213	0xbd23a628	-0.03995338
214	0x3cd73677	0.026271088
215	0x3d1cf792	0.03832204
216	0x3d907e2c	0.070553154
217	0x3d4cb310	0.049975455
218	0x3cd9ef4d	0.026603365
219	0x3e3f8644	0.18703562
220	0xbd1af89c	-0.03783475
221	0xbd8e18e1	-0.06938339
222	0x3d69f39e	0.057117097
223	0xbaa699f4	-0.0012710677
224	0x3db1d0d8	0.08682412
225	0xbdc38bd4	-0.095481545
226	0xbe1a076e	-0.15041897
227	0xbe1cab95	-0.15299828
228	0xbde8f3cf	-0.11374628
229	0xbd6d45a0	-0.057927728
230	0xbd9179d7	-0.07103317
231	0xbdb7b677	-0.08970349
232	0xbe397755	-0.18111928
233	0xbe07bb09	-0.13254942
234	0xbe1b4549	-0.15163149
235	0x3dda7a1c	0.10667822
236	0x3b87c4f9	0.004143354
237	0xbcf33744	-0.029689439
238	0xbdfe328a	-0.12411983
239	0xbe52b996	-0.20578608
240	0x3e714b94	0.23563987
241	0x3bb16620	0.0054137856
242	0x3d8f6a25	0.07002667
243	0xbc98c1a9	-0.018647032
244	0xbdae17ea	-0.08500655
245	0x3d64e424	0.055881634
246	0xbcf88619	-0.03033738
247	0xbdef55f6	-0.116863176
248	0xbe6ef83d	-0.23336883
249	0xbded6f0c	-0.11593446
250	0xbd84fdb4	-0.064937025
251	0x3ce12562	0.027483646
252	0x3d3a9335	0.045550544
253	0x3cca6e8d	0.024710918
254	0x3dd5320c	0.10409936
255	0xbdabdad3	-0.08391347

conv2.bias f4 [16]
0	0x3efb4e8d	0.49083367
1	0xbe43c4ae	-0.19117996
2	0xb98ce107	-0.0002687054
3	0x3ed845ba	0.42240697
4	0xbf05cf8c	-0.52269816
5	0xbf253f23	-0.64549464
6	0x3f44b8fe	0.76844776
7	0xbda200ad	-0.07910285
8	0xbc8d1ed7	-0.01722662
9	0xbdbf5861	-0.09343029
10	0x3f3a458c	0.7276237
11	0x3e9991cf	0.29994056
12	0xbea8c7f2	-0.32965046
13	0xbf05454f	-0.5205888
14	0x3f77486d	0.9659489
15	0x3e4ccc66	0.19999847

fc1.weight f4 [120, 400]
0	0x3ca46c0c	0.020071052
1	0x3cee5949	0.029095309
2	0xbc01be74	-0.007918943
3	0xbbf90884	-0.007599892
4	0x3d7ecc93	0.062206816
5	0xbc96d0f0	-0.018410176
6	0x3cc160e8	0.023605779
7	0x3c71b673	0.014752972
8	0xbc8fd48b	-0.017557403
9	0x3d3a3833	0.045463752
10	0xba6c17b6	-0.0009006219
11	0x3cb61f45	0.022231707
12	0x3d1ca5df	0.038244125
13	0x3c733046	0.014843052
14	0x3ce9392e	0.028469648
15	0x3c26ece5	0.010188316
16	0x3b3ec3bb	0.0029108364
17	0x3c423b95	0.011855026
18	0x3d90b17c	0.070651025
19	0x3d5de3de	0.05417239
20	0xbc89ef5c	-0.016837768
21	0x3c5cad9d	0.013469127
22	0x3babae58	0.0052392893
23	0x3c63e4f5	0.013909568
24	0xbbb07595	-0.0053851106
25	0x3d2c1233	0.042009544
26	0x3d063300	0.03276348
27	0x3ca681a4	0.02032549
28	0xbc8088dc	-0.01569026
29	0x3d8e6b21	0.06954027
30	0x3d807f87	0.06274324
31	0x3d345819	0.04402933
32	0x3d8515ed	0.06498323
33	0x3bad0679	0.0052803126
34	0x3dc1cab0	0.09462488
35	0xbd2f77d3	-0.042838883
36	0xbba6633b	-0.005077747
37	0xbd03e2be	-0.03219866
38	0xbcd40e3c	-0.025885694
39	0x3d7039d0	0.058648884
40	0xbd11d055	-0.03559907
41	0xbc7f50d6	-0.015583238
42	0x3cfd10a0	0.030891716
43	0x3d5bf745	0.05370261
44	0x3cf74cf6	0.030188065
45	0xbdc935b0	-0.09824693
46	0xbdafb8a5	-0.0858014
47	0xbc273960	-0.01020655
48	0x3ce7e5ba	0.028307784
49	0xbba4b6ea	-0.005026688
50	0x3ca99f8c	0.02070596
51	0x3c57ba27	0.013166941
52	0x3cd5c8b7	0.026096685
53	0xbca6a7f0	-0.02034375
54	0x3c9a9dc3	0.018874055
55	0x3c450fec	0.012027722
56	0xbc25fcb3	-0.010131049
57	0xbd128b8e	-0.03577762
58	0x3cb8cf38	0.022559747
59	0x3b699739	0.0035643114
60	0x3d58351a	0.052785017
61	0x3b80e4d1	0.003933527
62	0xbd130527	-0.035893586
63	0xbc702b0c	-0.014658701
64	0x39c94eab	0.0003839632
65	0x3df14529	0.117807694
66	0x3d74532c	0.05964963
67	0x3cb831c4	0.022484668
68	0xbd435c78	-0.047695607
69	0xbda51bba	-0.08061929
70	0x3d5d7bec	0.05407326
71	0x3d6ac73e	0.05731892
72	0x3a2259be	0.0006193182
73	0xbbe94a6c	-0.0071194675
74	0x3ac157c6	0.001475089
75	0x3c404e73	0.011737454
76	0x3d109cb3	0.03530569
77	0x3d48e71b	0.049048524
78	0x3c8aee23	0.016959256
79	0xbc490cf6	-0.012271157
80	0xbc268770	-0.010164127
81	0x3d233ac1	0.039850954
82	0x3c4227b1	0.0118502835
83	0x3d837f15	0.06420723
84	0xbc8d24f8	-0.017229542
85	0x3d40e29e	0.04709112
86	0x3d0fdc30	0.035122097
87	0x3d0d563a	0.03450606
88	0x3abc686e	0.0014374384
89	0x3c93a98c	0.018025182
90	0xbd357830	-0.044304073
91	0xbc6d85c9	-0.014497229
92	0x3d443537	0.047902312
93	0x3c87feea	0.016601045
94	0x3d8709f7	0.065936975
95	0xbc5ed7d3	-0.013601261
96	0xbce8151f	-0.028330384
97	0x3c20e43a	0.009820038
98	0x3d1e4ce6	0.038647555
99	0x3db5f5ca	0.08884771
100	0x3ca2a37b	0.019853344
101	0x3d6486e8	0.05579272
102	0x3cce8ad7	0.025212688
103	0xbcb547f5	-0.022129038
104	0xbd15124d	-0.036394406
105	0xbc78a8b8	-0.015176944
106	0xbc9978c3	-0.018734341
107	0x3d5adcd4	0.053433254
108	0x3dabd3a6	0.08389978
109	0x3ca5fbb7	0.020261629
110	0x3d7af3fa	0.06126783
111	0x3d7b8540	0.061406374
112	0x3d50bb8c	0.05096011
113	0x3ce9ac9c	0.02852469
114	0xbae59ce8	-0.0017518075
115	0x3dfa9825	0.122360505
116	0x3c9d96ad	0.019236887
117	0x3c5d9fd8	0.013526879
118	0xbd2ffee9	-0.04296771
119	0xbb240a50	-0.002503056
120	0x3d402b64	0.04691638
121	0x3d914b01	0.07094384
122	0xbd30a052	-0.043121643
123	0xbd8e37ea	-0.069442585
124	0x3bcef107	0.006315354
125	0x3cbcffc0	0.02307117
126	0x3cf1bca3	0.029508894
127	0xbcbe99af	-0.023266641
128	0xbd8831d9	-0.06650133
129	0xbd778f41	-0.060439352
130	0x38603cf2	5.346252e-05
131	0xbb5b1738	-0.0033430588
132	0xbc5bd3d4	-0.013417203
133	0x3c47bfcb	0.012191723
134	0x3cb99131	0.02265224
135	0x3c772154	0.01508363
136	0x3c0a4ad1	0.008440689
137	0x3c25a4d4	0.010110099
138	0x3aefb6be	0.0018288714
139	0x3cc9e832	0.024646852
140	0xbdb6f9a1	-0.08934332
141	0xbd47e2e2	-0.048800357
142	0xbd3ab9a4	-0.045587197
143	0xbd1b9099	-0.037979696
144	0x3d804f65	0.06265143
145	0xbd9b4b14	-0.075826794
146	0xbd84373d	-0.06455848
147	0xbd516388	-0.05112031
148	0xbc04d30f	-0.008106961
149	0xbcbd3d16	-0.023100417
150	0x3cbc07cc	0.022952937
151	0x3b9658c7	0.00458822
152	0x3c6f1f23	0.014594826
153	0xbd059e68	-0.03262177
154	0x3b83ccfc	0.004022239
155	0xbb771df4	-0.0037707062
156	0xbd1a7bb8	-0.037715644
157	0xbd976df8	-0.07394022
158	0xbd8a09a8	-0.06740123
159	0xbd13fd43	-0.0361302
160	0xbd3698ab	-0.04457919
161	0x3c87d7a1	0.016582312
162	0xbc864ecb	-0.016394993
163	0x3cad2206	0.021134388
164	0xbd262045	-0.04055812
165	0x3b38646f	0.0028136035
166	0xbc6128bf	-0.013742625
167	0xbca98922	-0.020695273
168	0xba722498	-0.000923702
169	0x3cf47c33	0.029844379
170	0xbdce8558	-0.10084027
171	0xbc9784a7	-0.01849587
172	0xbd490b15	-0.049082834
173	0xbb536a30	-0.0032259338
174	0x3cefd093	0.02927426
175	0xbcaf30ec	-0.021385632
176	0x3ce96c3e	0.028493997
177	0xbca6fa52	-0.020383034
178	0xba9c1c18	-0.0011910228
179	0xbd23e979	-0.04001758
180	0x3c9ed3af	0.019388048
181	0x3c09b5a9	0.008405128
182	0xbd31139d	-0.043231595
183	0x3cccf3d5	0.025018612
184	0x3b3132eb	0.0027038406
185	0xbcdbdd06	-0.02683879
186	0x3d4e5cd7	0.050381508
187	0xbd0036e4	-0.031302348
188	0xbcc3d586	-0.023905527
189	0xbc332afe	-0.010935543
190	0x3cbd43f8	0.0231037
191	0xbcdceaca	-0.026967425
192	0x3d4d2ff5	0.050094564
193	0xbc3a7661	-0.011380763
194	0x3c52da56	0.012869438
195	0x3cb92419	0.02260022
196	0xbd1ca9be	-0.038247816
197	0x3b9aea8d	0.0047276677
198	0x3d1dc621	0.03851903
199	0x3ad5d630	0.0016314443
200	0xbd161aaf	-0.03664654
201	0xbc039fd7	-0.008033714
202	0xbd89443c	-0.06702468
203	0xbb56bb5d	-0.0032765486
204	0xbd86c9b4	-0.065814406
205	0x3ce715b0	0.028208584
206	0x3ceb83b4	0.028749324
207	0xbd47dd47	-0.04879501
208	0xbce86f15	-0.02837328
209	0xbd8b5c0b	-0.06804665
210	0xbdb5dcd4	-0.0888001
211	0xbc7699f1	-0.015051351
212	0xbd36019c	-0.04443513
213	0xbd0951f1	-0.03352541
214	0x3c3bd0d8	0.011463366
215	0xbc57e119	-0.013176226
216	0xbacdb848	-0.0015695179
217	0xbdc72c52	-0.0972525
218	0xbb5dc950	-0.0033841915
219	0xbbff9bf0	-0.0078005716
220	0xbc2da94c	-0.010599446
221	0xbc9f5e7a	-0.01945423
222	0xb81de1dc	-3.7642065e-05
223	0xbcf9868f	-0.03045967
224	0xbd0b0e55	-0.033949215
225	0x3c82b579	0.015955674
226	0xbca12cd6	-0.0196747
227	0xbc871ebd	-0.01649415
228	0xbd31c252	-0.04339821
229	0xbd3455c0	-0.04402709
230	0xbd0606b0	-0.03272122
231	0x3cbed6b4	0.023295738
232	0xbb12ed61	-0.002241932
233	0xbd396cce	-0.04526978
234	0xbd1149a2	-0.035470612
235	0x3d1135b3	0.035451602
236	0x3bce25b6	0.0062911166
237	0xbd267a4e	-0.040643983
238	0xbd3a5ef7	-0.04550072
239	0xbc87994b	-0.016552588
240	0x3dd1fb77	0.10253041
241	0xbced9c5b	-0.02900522
242	0x3c25e8ec	0.010126334
243	0x3beffc94	0.007323811
244	0xbcaaf975	-0.020870904
245	0xbc369a82	-0.011145236
246	0x3d38cd1b	0.04511748
247	0xbc44c01d	-0.012008694
248	0xbce7d723	-0.028300827
249	0xbd1f976b	-0.038962763
250	0x3c97a12b	0.018509468
251	0x3cdbba80	0.026822329
252	0x3d4ded75	0.050275285
253	0xbcca7132	-0.024712179
254	0xbd207327	-0.039172318
255	0x3ce16fdd	0.02751916

fc1.bias f4 [120]
0	0xbccd136e	-0.025033679
1	0x3e499938	0.19687355
2	0xbd98eb70	-0.07466781
3	0xbd59363f	-0.05303025
4	0x3e4aa172	0.19788149
5	0x3e005ff2	0.125366
6	0x3d688a1f	0.056772348
7	0x39cd62e4	0.00039174326
8	0x3d9fc9c6	0.07802157
9	0x3d11fbec	0.035640642
10	0x3e54988a	0.20761314
11	0xbcc89f65	-0.024490068
12	0x3d3380e4	0.04382409
13	0x3cb62a4f	0.022236971
14	0x3e0a3e12	0.1350024
15	0x3d205133	0.039139938
16	0x3cdb1229	0.026742058
17	0x3cf69156	0.030098598
18	0x3c6a8859	0.014314734
19	0x3d660d74	0.056165174
20	0xbcb3694a	-0.021900792
21	0x3cfa84cb	0.030580899
22	0x3cad9bea	0.02119251
23	0x3dc1f820	0.09471154
24	0xbd61e284	-0.055147663
25	0x3e37fcad	0.17967482
26	0x3e086607	0.1332017
27	0x3d3d6089	0.04623464
28	0x3d138350	0.0360139
29	0x3dfb1095	0.12259022
30	0x3e7f5737	0.24935614
31	0xbc4cd74d	-0.012502504
32	0xbcd5e618	-0.026110694
33	0xbce39ef9	-0.027785765
34	0xbe3e7154	-0.18597919
35	0xbc9f0250	-0.019410282
36	0x3d2fbe30	0.042905986
37	0xbd98f9a2	-0.07469489
38	0x3cc3fb7e	0.023923632
39	0x3c4196ce	0.01181574
40	0x3c9421bc	0.018082492
41	0x3e8b7d3a	0.27243978
42	0x3e25049b	0.16115038
43	0x3c07c5a6	0.008286869
44	0x3dcce55b	0.100046836
45	0x3de6fb20	0.11278367
46	0xbb706ca4	-0.0036685849
47	0xbd2a8e02	-0.041639335
48	0x3e122f9a	0.14275971
49	0xbce288e1	-0.02765316
50	0x3cdff870	0.027340144
51	0xbd6de5c5	-0.058080453
52	0x3d71d2ad	0.059038807
53	0x3cfbb142	0.030724172
54	0xbd109e7f	-0.035307404
55	0xbdb75233	-0.08951225
56	0xbd09c757	-0.03363737
57	0xbd2bcf54	-0.04194577
58	0xbc897448	-0.01677908
59	0x3e859a14	0.26094115
60	0x3cb3a06d	0.021927083
61	0xbd3fb074	-0.04679914
62	0x3d205ea6	0.039152764
63	0x3c42c64e	0.0118881
64	0xbc5a1aa6	-0.013312018
65	0xbd86034a	-0.06543596
66	0x3dd68559	0.10474653
67	0xbdfc3f4b	-0.1231676
68	0xbda758a4	-0.08171204
69	0x3d9db78d	0.07701025
70	0xbcd257b7	-0.025676591
71	0x3e005402	0.12532046
72	0xbddd06b3	-0.107922934
73	0xbc762fcb	-0.015026043
74	0x3e2a2031	0.16613843
75	0xbd1a6405	-0.037693042
76	0x3dd7d58a	0.10538776
77	0x3e0cce41	0.13750555
78	0xbce0bca4	-0.0274337
79	0x3dee1dcb	0.11626776
80	0xbcafbd35	-0.021452526
81	0xbe2f8405	-0.17140205
82	0x3d46c124	0.048524037
83	0x3c601006	0.013675695
84	0xbd079038	-0.033096522
85	0xbdd72f55	-0.10507075
86	0x3dc6ed31	0.097132094
87	0x3c0ef89d	0.008726266
88	0x3e554d44	0.20830256
89	0x3da7c4e3	0.0819185
90	0xbe7014b9	-0.23445405
91	0xbc0685a4	-0.008210573
92	0xbca1ffc4	-0.019775279
93	0x3e08e68c	0.13369197
94	0xbbbf6f65	-0.0058421367
95	0x3c0b317a	0.008495683
96	0x3d5373f4	0.051624253
97	0x3db91222	0.09036662
98	0x3b47721a	0.0030433
99	0x3e3dd91e	0.18539855
100	0x3d3baedc	0.045821056
101	0x3de24e6b	0.11050113
102	0x3dc2fa7a	0.09520431
103	0xbe018060	-0.12646627
104	0x3d1f680a	0.03891758
105	0x3c6a0218	0.014282726
106	0xbc111260	-0.008854479
107	0x3e0747ef	0.13211034
108	0xbd7c6007	-0.061615016
109	0x3e078de5	0.13237722
110	0x3d174272	0.0369286
111	0xbd5267ed	-0.051368643
112	0xbcfb2984	-0.030659445
113	0xbcc8f238	-0.024529561
114	0x3d420bf6	0.047374688
115	0x3e06109c	0.13092273
116	0xbd15d73c	-0.036582217
117	0xbce3ea66	-0.02782173
118	0xbcae80ab	-0.021301588
119	0x3df2873d	0.11842201

fc2.weight f4 [84, 120]
0	0xbd5fa960	-0.054604888
1	0x3d116f2b	0.03550641
2	0x3d73dbc4	0.059535757
3	0xbd08bc78	-0.033382863
4	0xbd021987	-0.031762626
5	0x3d528eee	0.05140584
6	0xbde721a4	-0.11285713
7	0x3dbb5f8b	0.09149083
8	0x3c33fee8	0.010986067
9	0xbd6646af	-0.056219753
10	0x3d755040	0.059890985
11	0xbd9f708f	-0.07785141
12	0xbd559ca0	-0.052151322
13	0x3de6c112	0.11267294
14	0x3bed0229	0.0072329235
15	0xba80b00b	-0.000981809
16	0x3d90a2bd	0.0706229
17	0xbdc16862	-0.094437376
18	0x3a3e6c20	0.00072640367
19	0x3d825567	0.063639455
20	0xbd5bd2d9	-0.053667877
21	0xb9374be2	-0.00017480509
22	0xbd92a4ff	-0.07160377
23	0xbe01aad8	-0.12662828
24	0x3d2cce46	0.042188905
25	0xbca165d1	-0.01970187
26	0x3d12035e	0.035647742
27	0x3dcd947c	0.10038087
28	0x3dc7ba30	0.09752309
29	0x3dd61e03	0.10454943
30	0x3b9ef024	0.0048504043
31	0x3d2eb092	0.04264886
32	0x3d9fb507	0.077982
33	0x3c108772	0.008821355
34	0x3d3af52c	0.04564397
35	0xbd62b44e	-0.055347733
36	0xbda26cfe	-0.07930945
37	0xbd72965e	-0.059225433
38	0x3d8c5092	0.06851305
39	0x3d07683d	0.033058394
40	0xbd8c74a9	-0.06858189
41	0xbd881f21	-0.06646562
42	0xbbd464cb	-0.006481742
43	0x3d9b0975	0.07570163
44	0x3c346fe7	0.011013008
45	0xbd3ec2f0	-0.046572626
46	0xbb1d7276	-0.0024024523
47	0x3d46e64c	0.048559472
48	0x3dbb168e	0.09135161
49	0xbcb7d66f	-0.022441117
50	0xbde55bae	-0.11199127
51	0x3db2e698	0.087353885
52	0xbc578229	-0.013153591
53	0x3d5c4dd9	0.05378518
54	0xbc07d575	-0.008290638
55	0xbdd08e92	-0.10183443
56	0x3cf83e55	0.03030316
57	0xbcf5a27e	-0.029984709
58	0x3dbbfb35	0.09178773
59	0x3d5550aa	0.05207888
60	0x3df459cc	0.1193119
61	0xbe063825	-0.13107355
62	0xbd6bb477	-0.05754515
63	0xbb531809	-0.003221037
64	0x3d900364	0.07031897
65	0xbceb64ee	-0.02873465
66	0x3d21fa5d	0.039545406
67	0xbd38ef35	-0.04515
68	0xbc7f5b89	-0.0155857885
69	0xbc86d723	-0.016460007
70	0xbcbf3f42	-0.023345593
71	0xbc15f9fa	-0.009153837
72	0xbdaaec2b	-0.08345827
73	0x3d01ffa8	0.031737953
74	0x3dd464a1	0.10370756
75	0x3d9064a7	0.07050448
76	0x3b2e46c2	0.0026592468
77	0xbd5be9c9	-0.05368975
78	0x3db0b87e	0.08628939
79	0x3cc88858	0.024479076
80	0x3c56acda	0.013102734
81	0xbccee2b7	-0.02525459
82	0xbdb3900c	-0.08767709
83	0xbd30b827	-0.04314437
84	0x3c4ab1d6	0.012371501
85	0x3db83fbb	0.089965306
86	0x3d8ee26f	0.069767825
87	0xbdad91cd	-0.08475075
88	0xbcce172a	-0.02515753
89	0xbe000c1b	-0.12504618
90	0x3d657a81	0.056025032
91	0xbd00400e	-0.031311087
92	0x3bbd8766	0.005783963
93	0x3cfc27f0	0.030780762
94	0x3d69cc9b	0.057079893
95	0x3de859da	0.11345263
96	0xbd346c30	-0.04404849
97	0x3b179981	0.0023132267
98	0xbbb9f339	-0.0056747464
99	0x3d19f30b	0.0375853
100	0xbd400218	-0.046876997
101	0xbc922654	-0.017840542
102	0x3ad6328c	0.0016341968
103	0x3d6dd2e1	0.058062438
104	0x3d99d316	0.075109646
105	0x3dcde948	0.100542605
106	0xbd8bb336	-0.06821291
107	0x3d35b8b1	0.04436559
108	0x3cf9c10f	0.030487565
109	0x3cfab97d	0.030606026
110	0x3d29d019	0.041458223
111	0xbd9b07f7	-0.075698785
112	0xbd23474f	-0.039862927
113	0x3df715e4	0.12064722
114	0x3c22720e	0.009914888
115	0x3d602908	0.05472663
116	0xbabd073d	-0.0014421713
117	0xbdbacf27	-0.091215424
118	0xbd00e1a2	-0.03146518
119	0x3d72659b	0.05917893
120	0x3d9c03d2	0.07617916
121	0x3dfc51ad	0.12320266
122	0xbd110de5	-0.03541364
123	0xbe2a6fd7	-0.16644226
124	0x3d2cbc6d	0.042171884
125	0xbba409c3	-0.0050060465
126	0x3dce685d	0.100784995
127	0x3bd394e4	0.006456958
128	0xbc83cff2	-0.016090367
129	0xbd716d73	-0.05894227
130	0x3ddc948c	0.107705206
131	0xbb86e91d	-0.0041171447
132	0x3ccaf68c	0.024775766
133	0x3dd92356	0.10602443
134	0xbd8183c3	-0.0632396
135	0x3c7e1932	0.015508937
136	0xbc6d95fe	-0.014501093
137	0x3dfc6a05	0.12324909
138	0xbe1e9abf	-0.15488718
139	0x3e129fa2	0.14318708
140	0xbc456bd6	-0.012049636
141	0x3ca5b568	0.020228103
142	0x3d82cd28	0.06386787
143	0x3d72e420	0.05929959
144	0xbda918b8	-0.08256668
145	0x3cae5a61	0.02128333
146	0x3ccbd66f	0.024882523
147	0xbc203a37	-0.0097795045
148	0x3d49b0bc	0.049240813
149	0xbbb07bc9	-0.00538585
150	0x3c2b4b3d	0.01045495
151	0xbd677d35	-0.05651589
152	0x3d1931cf	0.037401017
153	0x3da8f566	0.08249931
154	0xbe2a3986	-0.16623506
155	0xbd548294	-0.05188234
156	0xbbb34417	-0.0054707634
157	0xbdfa7bc3	-0.12230637
158	0xbc88c032	-0.016693208
159	0xbd2da955	-0.042397816
160	0x3c890ecd	0.01673069
161	0x3db2be9f	0.08727764
162	0x3c6d141d	0.014470127
163	0xbd4108ce	-0.047127537
164	0x3d5cf040	0.053940058
165	0xbe301e42	-0.17199042
166	0x3d3e5576	0.04646822
167	0xbaed979d	-0.0018126849
168	0x3e0373ab	0.12837093
169	0x3d3b3842	0.04570795
170	0x3d5d29ef	0.05399507
171	0xbd835f5a	-0.06414671
172	0x3d816232	0.063175574
173	0x3dac8acb	0.0842491
174	0x3d1888af	0.037239727
175	0xbd6284c0	-0.05530238
176	0xbd68d255	-0.056841213
177	0x3e060c56	0.13090643
178	0x3d357df1	0.04430956
179	0xbcbcc613	-0.023043668
180	0xbc9afe3d	-0.018920058
181	0xbd1b2753	-0.0378793
182	0x3c9cb794	0.019130506
183	0xbc76203e	-0.015022336
184	0xbd860a74	-0.065449625
185	0x3cbcd926	0.023052763
186	0x3dfa5b78	0.122244775
187	0x3d1aba5c	0.037775382
188	0xbc933823	-0.017971104
189	0x3d960a83	0.07326224
190	0x3b12871e	0.0022358368
191	0xbd1e2961	-0.03861368
192	0x3d4cef89	0.050033126
193	0xbe04b2ef	-0.12958883
194	0xbd48ce85	-0.049025077
195	0xbbb81065	-0.0056171888
196	0xbdd5c5aa	-0.10438092
197	0xbdb19445	-0.08670858
198	0xbd104c91	-0.03522927
199	0xbc98cbfa	-0.018651951
200	0xbb88bb8d	-0.0041727484
201	0xbe29a14b	-0.16565435
202	0x3cb942fa	0.022614945
203	0x3d647f8b	0.055785697
204	0x3c875d41	0.01652396
205	0x3c851ed1	0.016250046
206	0xbe069e5c	-0.13146347
207	0x3abe1007	0.0014500626
208	0x3d05678b	0.03256945
209	0x3dc01130	0.09378278
210	0xbda9ff5c	-0.08300659
211	0xbd71139f	-0.058856603
212	0xbe0f941f	-0.14021347
213	0x3de44a98	0.1114704
214	0xbb2a8946	-0.0026021763
215	0xbd334dac	-0.043775246
216	0x3a1cc9fb	0.0005981025
217	0x3d9ecd9a	0.07754059
218	0xbcbac81f	-0.022800503
219	0xbd1ba404	-0.037998214
220	0x3d83a88f	0.064286344
221	0xbda49941	-0.08037043
222	0x3db949b8	0.09047264
223	0xbdf37b8c	-0.11888799
224	0x3c1ffbdd	0.009764639
225	0xbcc8b989	-0.024502533
226	0xbd6dca11	-0.058054034
227	0x3d528a1b	0.05140124
228	0x3d901c66	0.070366666
229	0xbd93fef1	-0.072263606
230	0x3c6f6c2e	0.014613194
231	0xbd8be057	-0.06829899
232	0xbdedde7b	-0.116147004
233	0xbd897d28	-0.06713325
234	0x3c5572da	0.013027871
235	0x3cec5de0	0.028853357
236	0xbdc628dc	-0.09675762
237	0x3ca27b96	0.019834321
238	0x3c60f7c7	0.01373095
239	0xbde364b3	-0.11103191
240	0xbd62c8de	-0.055367343
241	0x3d33bdd3	0.043882202
242	0x3da13af7	0.07872575
243	0xbd3607f5	-0.044441182
244	0xbdcb5898	-0.09929007
245	0x3c910af5	0.01770542
246	0x3d81209f	0.0630505
247	0xbcb4ee7f	-0.02208638
248	0xbdb9bedd	-0.090696074
249	0xbdf47ca3	-0.11937835
250	0xbe29ca21	-0.16581012
251	0xbd86afb8	-0.065764844
252	0xbd812bf0	-0.063072085
253	0xbca6f990	-0.020382673
254	0xbb85ba87	-0.0040810737
255	0x3d4ade04	0.049528137

fc2.bias f4 [84]
0	0xbd5742da	-0.05255399
1	0x3e2fd6f6	0.17171845
2	0xbcfb5461	-0.030679883
3	0xbca866d1	-0.02055684
4	0x3d94056e	0.07227598
5	0x3ece385a	0.40277368
6	0x3f023f89	0.50878197
7	0x3d06e036	0.032928668
8	0xbd8cc4e6	-0.06873493
9	0x3ec2f517	0.38077614
10	0xbd01d904	-0.031701103
11	0xbd9050e7	-0.07046681
12	0x3e309f7e	0.17248341
13	0x3cc98e24	0.02460391
14	0xbd38af17	-0.045088854
15	0xbda23fc3	-0.07922318
16	0xbd6459cf	-0.05574971
17	0x3e8fd40c	0.28091466
18	0x3e815bb1	0.25265267
19	0x3e64d074	0.22345144
20	0x3b8266e4	0.0039795507
21	0xbd3c2f7f	-0.045943733
22	0x3db70bc0	0.08937788
23	0x3cd59896	0.026073735
24	0xbe05add0	-0.13054585
25	0x3d0ff03b	0.03514121
26	0x3d41656b	0.04721586
27	0x3df9bf4e	0.121946916
28	0xbd85d648	-0.065350115
29	0x3d92699d	0.071490504
30	0xbd5d31cd	-0.05400257
31	0xbcb6be89	-0.022307651
32	0x3e548c18	0.20756567
33	0xbc290a12	-0.010317342
34	0x3de41897	0.11137503
35	0x3df30144	0.11865476
36	0x3de36fb7	0.11105292
37	0x3eaad0dd	0.33362475
38	0x3dbd0ad9	0.09230585
39	0x3d960a6f	0.07326209
40	0xba3352ff	-0.00068406755
41	0x3d2039d9	0.039117668
42	0x3e91ed91	0.2850156
43	0xbdb8a2dc	-0.09015438
44	0xbde0f621	-0.10984445
45	0x3e1b696d	0.15176935
46	0x3e7707d3	0.24124078
47	0xbd839c98	-0.06426352
48	0x3e0dcb04	0.13846976
49	0xbdc23888	-0.09483439
50	0x3f30f2d9	0.69120556
51	0xbd4976c1	-0.04918552
52	0x3e18913d	0.14899154
53	0x3ed7be00	0.42137146
54	0x3c87d958	0.01658313
55	0xbd427092	-0.047470637
56	0xbd68bc53	-0.056820225
57	0xbe3ba63d	-0.18325134
58	0xba59e11f	-0.0008311439
59	0x3e63d8a9	0.22250618
60	0x3d428528	0.04749027
61	0x3e73a77d	0.2379436
62	0xbd0348cd	-0.03205185
63	0x3cb9e6bc	0.02269303
64	0xbde185c2	-0.110118404
65	0xbda9b447	-0.08286338
66	0xbe0e5489	-0.13899435
67	0x3e28a036	0.16467366
68	0x3d193b35	0.03740998
69	0xbd0a2ef3	-0.03373618
70	0x3e28d8ee	0.16489002
71	0xbc187354	-0.00930484
72	0xbd075a12	-0.033044882
73	0xbd7336d9	-0.05937848
74	0xbc946c07	-0.018117918
75	0x3eaedac1	0.3415127
76	0x3c6125cf	0.013741924
77	0xbd881152	-0.066439286
78	0x3e29c7df	0.16580151
79	0xbc8e495c	-0.017368965
80	0x3ba41056	0.00500683
81	0x3dba2d57	0.09090679
82	0xbbad8805	-0.005295756
83	0xbe536035	-0.20642169

fc3.weight f4 [10, 84]
0	0x3e14991d	0.14511533
1	0x3ddfb2fb	0.1092281
2	0x3e0d3f72	0.13793734
3	0x3db70813	0.08937087
4	0x3e58c652	0.21169403
5	0x3d60db64	0.054896727
6	0xbea7189a	-0.32635957
7	0x3d22660f	0.039648112
8	0xba743fcf	-0.00093173695
9	0xbd6b1cd6	-0.057400547
10	0xbcf60ce3	-0.030035442
11	0xbd9238ac	-0.071397156
12	0xbdc28e92	-0.094998494
13	0x3cac5637	0.021037204
14	0xbe0f7798	-0.14010465
15	0xbc203273	-0.009777653
16	0xbd75241d	-0.059848893
17	0x3e1299c0	0.14316463
18	0xbe53983c	-0.20663542
19	0xbe2375ca	-0.15962902
20	0x3de1f0d3	0.11032262
21	0x3e35be03	0.17748265
22	0xbe3a00a3	-0.18164305
23	0x3e5ffe08	0.21874249
24	0xbbe5c73f	-0.0070122774
25	0x3dc2d8ff	0.09514045
26	0xbdc5b466	-0.09653549
27	0x3e10632f	0.14100336
28	0xbd8ea663	-0.069653295
29	0x3e35b540	0.17744923
30	0xbddfc7f4	-0.1092681
31	0xbd64826b	-0.05578844
32	0xbde56552	-0.11200966
33	0xbbe199f0	-0.006884806
34	0xbcdb86de	-0.026797708
35	0xbc9c1f91	-0.01905802
36	0xbdcdcc77	-0.10048764
37	0x3e3bcd36	0.1834
38	0x3e379c95	0.17930825
39	0x3ea4b1fb	0.32167038
40	0x3cd28775	0.025699357
41	0x3dc8a0ef	0.09796321
42	0xbd776dff	-0.060407635
43	0xbe75ac90	-0.23991609
44	0x3dd736d4	0.105085045
45	0x3d739d11	0.059475962
46	0xbe4acf7a	-0.19805709
47	0x3db99cdb	0.09063121
48	0x3c843bac	0.016141735
49	0xbdd411ad	-0.10354934
50	0xbeaeced1	-0.34142163
51	0xbcf7698a	-0.030201692
52	0x3dd91542	0.10599758
53	0x3cedc69b	0.029025367
54	0xbd62ac24	-0.055339947
55	0xbd88fe09	-0.06689078
56	0xbdc693e0	-0.09696174
57	0x3e2916d1	0.1651261
58	0x3e3d0cec	0.1846196
59	0x3e033f5f	0.12817143
60	0x3d815a10	0.06316006
61	0xbe823cf6	-0.25437135
62	0x3bd9c23f	0.0066454704
63	0x3daac211	0.083377965
64	0x3dd88a93	0.10573306
65	0x3dd9aeb1	0.10629023
66	0x3c151813	0.009099978
67	0x3e0a12f0	0.13483787
68	0x3d5cc3af	0.053897556
69	0x3c9b5f67	0.01896639
70	0x3e86308d	0.26208916
71	0x3d415002	0.047195442
72	0xbd95ab79	-0.073080964
73	0xbd875e89	-0.06609828
74	0xbdc1e14b	-0.09466799
75	0x3e11dc8a	0.14244285
76	0x3e05ca9e	0.13065574
77	0x3da7bf33	0.08190765
78	0xbd601803	-0.0547104
79	0xbdd852e0	-0.10562682
80	0x3df762cf	0.12079393
81	0x3e023620	0.1271596
82	0x3b6c426a	0.0036050328
83	0x3d67c225	0.056581635
84	0x3d86310c	0.06552324
85	0xbdfd138e	-0.123572454
86	0xbc7d9289	-0.015476831
87	0xbcd140eb	-0.02554365
88	0xbded4854	-0.11586061
89	0xbe221509	-0.15828337
90	0xbe2240b2	-0.15844992
91	0xbd28b26b	-0.041185778
92	0xbd6c7a95	-0.05773409
93	0xbca38350	-0.019960076
94	0x3dcb3420	0.099220514
95	0xbd63eea8	-0.055647522
96	0xbe949560	-0.29020214
97	0xbd373a5c	-0.04473339
98	0x3c22a30e	0.009926571
99	0x3d778f65	0.060439486
100	0x3d3ecf53	0.04658444
101	0xbdb3666d	-0.087597705
102	0x3dbdbd69	0.09264643
103	0xbea04715	-0.3130423
104	0x3a932243	0.0011225421
105	0xbd54ef9f	-0.051986333
106	0x3db0efd3	0.08639493
107	0x3e79709a	0.2435936
108	0xbe2c8431	-0.16847302
109	0xbd1a48e7	-0.03766718
110	0x3eb4f218	0.35340953
111	0x3ed427ed	0.4143671
112	0x3d13c5af	0.036077198
113	0xbd8c2ef9	-0.06844897
114	0xbd8197d1	-0.06327785
115	0xbd7a07c8	-0.061042577
116	0x3d1f2dfe	0.03886222
117	0x3c88829c	0.016663842
118	0xbd3c9fe1	-0.04605091
119	0xbe468e04	-0.19390112
120	0xbd9ce3c8	-0.07660633
121	0xbde0bebc	-0.1097388
122	0xbdadb090	-0.08480942
123	0xbe2d4d7e	-0.16924092
124	0x3e1ea415	0.1549228
125	0x3d4ab2dc	0.04948698
126	0xbe88354e	-0.26603168
127	0x3ca73f3d	0.020415897
128	0xbdf8c3aa	-0.12146695
129	0xbc5b2347	-0.01337511
130	0xbd7a1f0b	-0.06106476
131	0xbd822da8	-0.063563645
132	0xbd2e6b96	-0.04258307
133	0x3e5d822e	0.21631691
134	0xbe80fde2	-0.25193697
135	0x3d866214	0.06561676
136	0xbe000c76	-0.12504753
137	0xbec2ce9d	-0.38048258
138	0x3d91c28f	0.07117187
139	0xbe5e1b81	-0.2169018
140	0xbd35caf6	-0.04438301
141	0x3e8a2aef	0.2698588
142	0x3e890166	0.2675888
143	0x3de2fa7d	0.11082933
144	0xbcf88723	-0.030337876
145	0x3d925310	0.07144749
146	0x3e10e15b	0.14148466
147	0xbda0d299	-0.07852668
148	0xbc1e8f48	-0.009677716
149	0x3d1ae6f0	0.037817895
150	0x3d0b2500	0.033970833
151	0xbd4650cc	-0.048416898
152	0x3d33d858	0.043907493
153	0x3da981c1	0.08276702
154	0x3ba1f418	0.0049424283
155	0xbd03ff2b	-0.03222577
156	0x3db6c859	0.08924932
157	0xbe82bb13	-0.2553335
158	0x3ebc806e	0.36816734
159	0x3d43fe57	0.04784998
160	0xbe3e0042	-0.18554786
161	0x3b0a991c	0.002114839
162	0xbe86859f	-0.2627382
163	0xbce4bb15	-0.027921239
164	0xbd731902	-0.05935002
165	0x3dcc29d5	0.09968916
166	0x3bb6ecd5	0.005582432
167	0x3e344b72	0.17606905
168	0xbd9046ff	-0.070447914
169	0x3e997b9d	0.29977122
170	0xbda8c9ba	-0.08241601
171	0x3c9bd2c1	0.019021394
172	0x3e45baa9	0.19309486
173	0x3e84e000	0.25952148
174	0x3e5da613	0.21645384
175	0xbc9029e8	-0.017598107
176	0xbd7857cf	-0.060630616
177	0xbdc4dc2d	-0.09612308
178	0x3d9ae796	0.07563703
179	0xbdb72783	-0.08943083
180	0x3e141c50	0.14463925
181	0xbd12790b	-0.035759967
182	0x3e069e7d	0.13146396
183	0x3c1f4bdc	0.009722676
184	0x3ccec88f	0.025242118
185	0x3c7fe382	0.015618207
186	0xbcd0c403	-0.02548409
187	0x3e9a2f39	0.30114153
188	0x3c9b841f	0.018983899
189	0x3db3b7aa	0.087752655
190	0x3daa6fe1	0.083221205
191	0x3b797f89	0.0038070402
192	0x3e597f67	0.21240006
193	0xbc0edb82	-0.008719327
194	0xbe115dae	-0.14195892
195	0xbe3c91a5	-0.18414934
196	0xbc600a1a	-0.013674283
197	0x3e21292a	0.15738359
198	0x3d3468dc	0.044045314
199	0xbcaa94c8	-0.020822898
200	0xbcd38c4b	-0.025823733
201	0xbdd2b6ca	-0.102887705
202	0xbdc888cd	-0.09791718
203	0xbc916663	-0.017749017
204	0xbcc58c50	-0.024114758
205	0x3be8e928	0.0071078725
206	0x3e684945	0.226842
207	0x3d025bd7	0.031825867
208	0x3de2b22f	0.11069142
209	0xbe601866	-0.21884307
210	0xbda90e95	-0.082547344
211	0x3cd911a4	0.02649767
212	0x3e134602	0.14382175
213	0x3e71a0e5	0.23596533
214	0x3e22d826	0.15902767
215	0x3dd0007f	0.101563446
216	0xbdec81a4	-0.115481645
217	0x3d3c2533	0.045933913
218	0x3dc4e836	0.09614603
219	0x3a84c2e5	0.0010128884
220	0x3c1ee88e	0.009699
221	0x3e37c812	0.17947415
222	0xbd501b35	-0.050807197
223	0xbc8c0c1a	-0.017095614
224	0x3d165ede	0.036711566
225	0x3db4513f	0.08804559
226	0xbdd5e429	-0.10443909
227	0xbd8a79b2	-0.06761493
228	0xbcab3b43	-0.020902282
229	0x3c7ca266	0.015419578
230	0x3dbe71d3	0.09299054
231	0x3e053485	0.13008316
232	0x3dbff033	0.09371986
233	0x3cb192a3	0.021676367
234	0xbd1b4c26	-0.037914418
235	0xbe37dde2	-0.17955735
236	0x3dd5200c	0.10406503
237	0xbe30d6db	-0.17269461
238	0xbded0e26	-0.11574964
239	0xbda9ca5a	-0.082905486
240	0xbe46ac2a	-0.19401613
241	0x3c3a12c9	0.011357018
242	0xbd8f2c95	-0.06990925
243	0xbe4fae50	-0.20281339
244	0x3e17229b	0.14759295
245	0xbcefe5bc	-0.02928435
246	0x3dc48874	0.09596339
247	0xbd7013ca	-0.058612622
248	0x3e356028	0.17712462
249	0x3c8a6665	0.016894529
250	0xbd785b0f	-0.060633715
251	0xbd66200e	-0.056182913
252	0xbb83f31c	-0.0040267836
253	0xbe167949	-0.14694704
254	0xbda2447a	-0.07923217
255	0xbbf1f220	-0.0073836

fc3.bias f4 [10]
0	0xbe769347	-0.2407962
1	0xbf251401	-0.6448365
2	0xbbdaf45c	-0.006681962
3	0x3eb74ba4	0.35799897
4	0x3eeb9d74	0.46018565
5	0xbdb942a8	-0.09045917
6	0x3e1d6c71	0.15373398
7	0xbede9dc8	-0.43479753
8	0x3ea32591	0.31864598
9	0xbe5b2927	-0.21402417
