python/11-deepLearning/04-net/mnist/results/model.pth (torch_old, 88700 bytes, 8 tensors)

conv1.weight f4 [10, 1, 5, 5]
0.21461685 0.23053654 0.30878407 0.12671196 0.36124876 0.084649116 0.15447114 0.1202261
0.23424175 -0.0018319833 0.09611561 -0.11485731 -0.19792655 -0.07691254 0.11754046 0.0472505
-0.24815889 0.11229565 -0.27751613 0.07711725 -0.15914553 -0.22798441 -0.24430975 -0.029593142
-0.03497379 0.20992717 -0.13938396 -0.091706716 0.113214746 0.12777552 0.16482708 -0.11349699
-0.209159 -0.1503956 0.09759019 0.28244 -0.023999665 -0.12087849 0.03203255 -0.16101767
0.2616617 -0.18108898 -0.1906937 -0.11075212 0.0047962675 0.22775455 0.21247913 -0.24172288
0.020937407 -0.16513424 0.1274085 0.2686255 0.13348234 -0.1740804 -0.23465674 0.21291524
0.29634523 -0.13476807 -0.033791285 -0.3153996 0.20032501 0.39585 0.17248973 -0.30523542
-0.30115193 0.28975722 0.2939588 0.31328905 0.052396197 0.13268265 0.20534523 0.30676687
0.31555113 0.25137582 0.3257603 -0.06134627 -0.21697897 0.0078671845 0.040806416 0.07861616
-0.1386478 0.007881356 -0.22967617 -0.09424573 -0.05691471 -0.27480972 -0.10013104 0.1393993
0.26727054 0.15754814 -0.040856417 -0.03659893 0.18570705 0.08864845 -0.13229011 -0.01936503
0.28181025 0.23595165 0.119804695 -0.062335912 0.19556253 0.23175533 0.112775676 0.27452764
0.14573249 0.04920697 -0.07711164 -0.089671105 0.23522197 0.27051607 -0.27681878 -0.114442766
0.09043823 0.23702273 0.36351836 -0.076067336 -0.119011305 0.26031741 0.38787767 0.081198715
0.073865846 0.28378195 0.08074867 0.05023921 0.23738307 0.0941359 -0.15416911 -0.30930746
-0.3341177 -0.2855351 -0.24389705 -0.3334679 -0.1796582 -0.14077702 -0.028561948 0.049249668
-0.0018180375 0.25090277 0.19014727 0.09240674 0.3037627 0.38783607 0.12347386 0.41660446
0.32984117 0.27755395 0.20813936 0.09356167 -0.11715215 -0.004434605 0.15844627 -0.10576892
0.08417868 -0.07727284 -0.0058820006 -0.038591623 -0.10017723 -0.20222723 -0.13018082 -0.048017047
0.0386178 0.0653851 0.15038522 0.037225746 -0.24775973 -0.1340581 -0.07981601 -0.13371965
0.096797034 -0.012557967 0.2678086 0.09605525 0.20740184 -0.019493597 0.27532145 -0.09068521
0.18908949 -0.007463124 -0.13533744 -0.036106683 -0.1589425 0.18227746 0.024431987 0.018687883
-0.023747692 -0.064357534 0.18232603 0.32558793 0.23390137 0.117043786 -0.21258189 0.052572176
-0.040760927 -0.08108812 0.22944266 -0.3076011 -0.18560234 -0.17629166 -0.002318125 -0.15528105
-0.2403594 -0.29391655 -0.14211917 -0.23224175 0.073718525 0.018751165 -0.0039839474 0.020348554
-0.20783977 -0.078008935 -0.033845972 -0.16235207 -0.09451353 -0.086255185 -0.25198558 0.083433494
-0.041174892 -0.016409455 0.013249925 -0.031036412 0.12509342 0.19032504 0.2629991 -0.08366524
0.1673922 0.27331743 0.402804 0.34110427 0.22209087 0.15497464 0.32852218 0.13452093
-0.08272702 -0.198015 -0.099160425 0.38472098 -0.04183909 -0.22954553 -0.022505825 0.019693045
0.231972 -0.13499224 -0.051721353 -0.15075248 -0.18587598 0.12987542 -0.098198436 -0.16571824
-0.024913326 -0.07432799
00000000: 85c4 5b3e c511 6c3e f218 9e3e c8c0 013e
00000010: 99f5 b83e 845c ad3d af2d 1e3e 1a39 f63d
00000020: 12dd 6f3e 291f f0ba 43d8 c43d 4f3a ebbd
00000030: 42ad 4abe 5284 9dbd 0db9 f03d be89 413d
00000040: 5d1d 7ebe 43fb e53d 9816 8ebe a6ef 9d3d
00000050: 0cf7 22be bf74 69be 562c 7abe 516d f2bc
00000060: ad40 0fbd 26f7 563e abba 0ebe bbd0 bbbd
00000070: 22dd e73d 96d7 023e 6ec8 283e 1c71 e8bd
00000080: c72d 56be 4e01 1abe 5edd c73d fa9b 903e
00000090: f29a c4bc 248f f7bd 9034 033d d1e1 24be
000000a0: 86f8 853e 646f 39be 3645 43be 02d2 e2bd
000000b0: 022a 9d3b 7d38 693e 2194 593e 3486 77be
000000c0: ed84 ab3c f318 29be 6077 023e 4889 893e
000000d0: 98af 083e 2242 32be db49 70be 7406 5a3e
000000e0: 90ba 973e a400 0abe bb68 0abd 0e7c a1be
000000f0: 0022 4d3e daac ca3e 26a1 303e d147 9cbe
00000100: 9630 9abe 0f5b 943e c581 963e 6c67 a03e
00000110: 659d 563d f6dd 073e 0546 523e 8c10 9d3e
00000120: eb8f a13e 55b4 803e 0eca a63e 3a46 7bbd
00000130: bc2f 5ebe 5de5 003c a124 273d 8201 a13d
00000140: b0f9 0dbe ce20 013c 3b30 6bbe e803 c1bd
00000150: 661f 69bd dcb3 8cbe 8111 cdbd b1be 0e3e
00000160: afd7 883e 4d54 213e 0f59 27bd c2e8 15bd
00000170: fd29 3e3e 528d b53d 0f77 07be 69a3 9ebc
00000180: 6f49 903e 4f9d 713e 2a5c f53d f153 7fbd
00000190: 8b41 483e 4551 6d3e eff6 e63d e38e 8c3e
000001a0: e63a 153e 3f8d 493d b5ec 9dbd 7ca5 b7bd
000001b0: 07de 703e 1581 8a3e 31bb 8dbe f860 eabd
000001c0: ae37 b93d 16b6 723e 141f ba3e 31c9 9bbd
000001d0: 33bc f3bd 5348 853e e797 c63e 834b a63d
000001e0: fa46 973d de4b 913e 8f5f a53d a1c7 4d3d
000001f0: 8c14 733e 53ca c03d 82de 1dbe 8c5d 9ebe
00000200: 7a11 abbe a831 92be 26c0 79be 4ebc aabe
00000210: 52f8 37be da27 10be bffa e9bc 05ba 493d
00000220: 374b eeba 5476 803e f7b5 423e bf3f bd3d
00000230: c986 9b3e 7392 c63e dddf fc3d 2e4d d53e
00000240: f1e0 a83e 8d1b 8e3e 7c22 553e 439d bf3d
00000250: 77ed efbd 2a50 91bb bd3f 223e 609d d8bd
00000260: df65 ac3d 3941 9ebd ccbd c0bb 4012 1ebd
00000270: b829 cdbd a814 4fbe 1f4e 05be 86ad 44bd
00000280: b32d 1e3d a0e8 853d 95fe 193e 067a 183d
00000290: bab4 7dbe 8746 09be 9476 a3bd ceed 08be
000002a0: 863d c63d eebf 4dbc 351e 893e 9db8 c43d
000002b0: 2661 543e 09b1 9fbc eff6 8c3e 2bb9 b9bd
000002c0: ada0 413e 398d f4bb e695 0abe 9ae4 13bd
000002d0: d3c1 22be f1a6 3a3e 9725 c83c 5517 993c
000002e0: 858a c2bc e2cd 83bd adb3 3a3e 76b3 a63e
000002f0: d783 6f3e a7b4 ef3d 11af 59be ec55 573d
00000300: eef4 26bd 8711 a6bd 04f3 6a3e e47d 9dbe
00000310: 8a0e 3ebe cd85 34be afeb 17bb ff01 1fbe
00000320: c620 76be 3b7c 96be b087 11be c8d0 6dbe
00000330: bdf9 963d 0b9c 993c c68b 82bb 03b2 a63c
00000340: f3d3 54be 26c3 9fbd 13a2 0abd 9f3f 26be
00000350: 4f90 c1bd 8fa6 b0bd 4104 81be 2edf aa3d
00000360: 01a7 28bd 1f6d 86bc 3716 593c 1340 febc
00000370: 7d18 003e 91e4 423e d1a7 863e ae58 abbd
00000380: dc68 2b3e 43f0 8b3e 533c ce3e 38a5 ae3e
00000390: ca6b 633e acb1 1e3e 0f34 a83e dbbf 093e
000003a0: c96c a9bd 72c4 4abe 9f14 cbbd 26fa c43e
000003b0: 775f 2bbd fc0d 6bbe 235e b8bc 4f53 a13c
000003c0: 118a 6d3e 683b 0abe c5d9 53bd dc5e 1abe
000003d0: 4656 3ebe 10fe 043e 431c c9bd 0bb2 29be
000003e0: 0817 ccbc 4639 98bd

conv1.bias f4 [10]
0.061141446 0.14287966 0.13913032 -0.012330762 0.1919834 -0.07282711 -0.06614476 -0.041653328
0.24040098 0.11635978
00000000: 746f 7a3d 0c4f 123e 2e78 0e3e f706 4abc
00000010: 4c97 443e 6126 95bd e776 87bd ae9c 2abd
00000020: ad2b 763e 094e ee3d

conv2.weight f4 [20, 10, 5, 5]
-0.048990693 -0.002508774 -0.02126673 0.009303287 -0.001879354 0.013841963 -0.10428254 -0.021697748
-0.016191864 0.0017955087 -0.027269548 -0.09303742 -0.057459068 0.04337708 -0.07274987 -0.010375917
-0.034864824 0.035482984 -0.031252578 -0.054339867 -0.08647221 -0.025733072 -0.009173412 0.028035482
-0.06815189 0.04477934 -0.00938974 0.01686676 0.002819917 -0.045865715 -0.04961456 -0.018016472
-0.020943908 0.0067184474 -0.02726446 0.024100162 -0.032507878 0.044668566 0.01586163 -0.04196453
-0.06252768 0.040248748 0.048331067 0.03836543 -0.05865197 -0.022031125 -0.016092477 0.023327392
-0.059034854 -0.07864854 -0.11248831 -0.21679898 -0.16866398 -0.069286406 0.03917712 -0.14089313
-0.10117879 0.029523933 0.02266993 -0.012689208 -0.23424907 -0.055945802 0.14434129 -0.0016239885
-0.0940626 -0.103316 0.09013157 0.16377598 0.03764373 -0.07019646 0.031458996 0.042984966
0.09010086 -0.002695631 -0.046042144 -0.0021363175 0.030588455 0.00046366703 0.09027 0.050275583
0.023059707 0.10779921 0.06720348 0.06718653 0.0149017675 0.018160112 0.051287 0.033209085
-0.02916137 0.028166322 -0.019939134 0.05365039 0.046880793 0.032604504 0.05399413 0.020853952
0.036560696 0.01094881 -0.0035015538 -0.040635806 -0.1952378 -0.047914192 0.09346131 0.06304397
0.09099443 -0.12622826 0.044997085 0.04658894 -0.081440814 -0.02089247 -0.02178881 0.068556786
-0.021975204 -0.027981982 -0.025648419 -0.0052533555 0.057897516 -0.07577801 -0.015766034 -0.0052559716
0.057409614 -0.015568612 -0.005144126 0.014549583 -0.06798744 -0.052215148 -0.09321096 -0.079308785
0.03033127 -0.0014214833 -0.12035079 -0.04444642 -0.0056324783 -0.010669246 -0.13179667 -0.09850934
-0.10575718 -0.02580747 -0.028976353 -0.07579495 0.0052007763 -0.06902541 -0.12248594 0.039458405
0.03213493 -0.0068266555 -0.08796007 -0.09990506 0.011672786 0.043952204 -0.05643038 -0.014906091
0.007495932 -0.0691221 0.008893819 0.04239366 0.045874093 -0.01697439 -0.07584769 -0.031416513
-0.018945413 -0.021182382 0.03511193 -0.0012265187 0.05934482 0.052993406 -0.07532864 -0.06831892
-0.024096526 -0.05469392 -0.02797736 -0.05765916 -0.016280325 -0.040630583 0.039947458 -0.040043775
-0.0078036548 -0.014204261 0.04511025 0.01682531 -0.0302726 -0.03965487 -0.043836728 -0.022626864
0.036527634 0.0032086417 -0.07229653 -0.023185605 0.011309301 -0.046622984 0.014233753 0.012226244
-0.0062558525 -0.047478564 0.020854091 0.012923064 0.039844796 0.080877446 0.011027382 0.057143856
-0.02374266 0.009735535 0.014287991 -0.046742346 -0.04755011 -0.059236795 0.049860917 0.022644598
-0.01557657 -0.009377283 -0.04667051 -0.08386627 -0.04890073 0.025605122 -0.0020076176 -0.0041408464
0.011721371 -0.03483797 -0.036902595 0.011004588 -0.01114312 -0.019673526 0.021847842 0.006888383
0.007998429 0.037010983 -0.05753544 -0.03032178 -0.011293199 0.059647642 0.07048396 -0.08299265
-0.046412397 0.08372075 0.04144469 -0.04687221 0.01880852 0.11848053 0.102233015 -0.017226562
-0.06683587 -0.06479468 0.051496692 0.009206375 -0.018844867 0.017280513 0.031292703 0.059725005
-0.07391119 0.008283206 -0.0034779483 -0.041971352 -0.08177904 0.05704504 0.023604158 -0.044716854
00000000: 77aa 48bd 3e6a 24bb 9137 aebc d06c 183c
00000010: a854 f6ba 67c9 623c 1692 d5bd 7abf b1bc
00000020: cda4 84bc 4657 eb3a 6364 dfbc 678a bebd
00000030: 335a 6bbd 2aac 313d e2fd 94bd c0ff 29bc
00000040: 6bce 0ebd 9b56 113d b402 00bd 7b93 5ebd
00000050: 5818 b1bd 2ace d2bc 144c 16bc abaa e53c
00000060: 3893 8bbd 8b6a 373d 6dd7 19bc 292c 8a3c
00000070: 5bce 383b b0dd 3bbd a338 4bbd 4897 93bc
00000080: 8f92 abbc 6c26 dc3b b859 dfbc b46d c53c
00000090: fb26 05bd 63f6 363d 40f0 813c 00e3 2bbd
000000a0: 830e 80bd dfdb 243d ccf6 453d 1225 1d3d
000000b0: 0c3d 70bd 9e7a b4bc 5fd4 83bc 1619 bf3c
000000c0: 88ce 71bd 7c12 a1bd 4560 e6bd 8d00 5ebe
000000d0: 40b6 2cbe 08e6 8dbd 3078 203d 4a46 10be
000000e0: d336 cfbd 2ddc f13c 4ab6 b93c 65e6 4fbc
000000f0: fdde 6fbe 6d27 65bd 34ce 133e 03dc d4ba
00000100: e4a3 c0bd 5797 d3bd e796 b83d e4b4 273e
00000110: 5030 1a3d 29c3 8fbd 26db 003d 0111 303d
00000120: cd86 b83d 2fa9 30bb b096 3cbd 7601 0cbb
00000130: a494 fa3c 5618 f339 7adf b83d c5ed 4d3d
00000140: b6e7 bc3c d5c5 dc3d faa1 893d 1799 893d
00000150: 8b26 743c 84c4 943c 5112 523d 4006 083d
00000160: d3e3 eebc 0fbd e63c 6557 a3bc 83c0 5b3d
00000170: 1306 403d 4d8c 053d f328 5d3d e8d5 aa3c
00000180: abc0 153d a362 333c 537a 65bb bb71 26bd
00000190: 6bec 47be ac41 44bd a568 bf3d 321d 813d
000001a0: 4a5b ba3d fb41 01be dd4e 383d 0bd4 3e3d
000001b0: 71ca a6bd af26 abbc 727e b2bc 8067 8c3d
000001c0: 5805 b4bc 783a e5bc a21c d2bc 5724 acbb
000001d0: f225 6d3d 8031 9bbd c527 81bc 493a acbb
000001e0: 5826 6b3d 7e13 7fbc 0e90 a8bb 6061 6e3c
000001f0: 003d 8bbd 8ddf 55bd 63e5 bebd a56c a2bd
00000200: 4979 f83c 1151 baba 7a7a f6bd 730d 36bd
00000210: a790 b8bb 10ce 2ebc b5f5 06be 44bf c9bd
00000220: 3897 d8bd 306a d3bc d15f edbc 623a 9bbd
00000230: 466b aa3b 325d 8dbd e9d9 fabd 239f 213d
00000240: eb9f 033d 23b2 dfbb 6924 b4bd 069b ccbd
00000250: 373f 3f3c 3a07 343d 8b23 67bd ad38 74bc
00000260: 6fa0 f53b e38f 8dbd 61b7 113c f9a4 2d3d
00000270: 79e6 3b3d e00d 8bbc 0956 9bbd 9aae 00bd
00000280: 6933 9bbc ad86 adbc 87d1 0f3d 23c3 a0ba
00000290: 8e13 733d 9d0f 593d e745 9abd caea 8bbd
000002a0: 1466 c5bc bb06 60bd c730 e5bc 032c 6cbd
000002b0: 515e 85bc 416c 26bd f29f 233d f104 24bd
000002c0: cdb5 ffbb fdb8 68bc 87c5 383d 3cd5 893c
000002d0: 3efe f7bc 256d 22bd 248e 33bd f95b b9bc
000002e0: 009e 153d 1348 523b 3410 94bd bdef bdbc
000002f0: a54a 393c bef7 3ebd b034 693c 9650 483c
00000300: e5fd ccbb e278 42bd 33d6 aa3c 42bb 533c
00000310: 4c34 233d 13a3 a53d 31ac 343c ad0f 6a3d
00000320: f87f c2bc cb81 1f3c 2e18 6a3c e774 3fbd
00000330: e7c3 42bd 48a2 72bd f63a 4c3d 2a81 b93c
00000340: df34 7fbc 2da3 19bc 9429 3fbd 14c2 abbd
00000350: 224c 48bd d5c1 d13c 3c92 03bb f0af 87bb
00000360: fe0a 403c 42b2 0ebd 2d27 17bd 964c 343c
00000370: a291 36bc 602a a1bc 3ffa b23c f2b7 e13b
00000380: d80b 033c d498 173d 48aa 6bbd 6265 f8bc
00000390: 1c07 39bc 1651 743d e559 903d 0df8 a9bd
000003a0: ed1a 3ebd c975 ab3d e8c1 293d 13fd 3fbd
000003b0: 5314 9a3c eca5 f23d 8b5f d13d b81e 8dbc
000003c0: 3fe1 88bd 13b3 84bd 32ee 523d 56d6 163c
000003d0: 8d60 9abc dd8f 8d3c c72c 003d 35a2 743d
000003e0: c05e 97bd 49b6 073c 4aee 63bb 27ea 2bbd
000003f0: c57b a7bd 0fa8 693d 825d c13c 0529 37bd

conv2.bias f4 [20]
-0.013921962 0.040573988 -0.010436627 -0.07301517 0.02825191 -0.013336263 0.034369513 0.03305025
-0.023965308 0.01705487 0.064310856 0.009514821 -0.030300668 0.042917214 -0.058837816 -0.055691615
0.024358392 -0.0366786 0.018376801 0.02854718
00000000: f118 64bc e930 263d 63fe 2abc fa88 95bd
00000010: 8d70 e73c 5780 5abc 0cc7 0c3d b35f 073d
00000020: e552 c4bc a8b6 8b3c 69b5 833d 0de4 1b3c
00000030: 1b39 f8bc f6c9 2f3d ecff 70bd e41c 64bd
00000040: 408b c73c 4d3c 16bd f28a 963c c7db e93c

fc1.weight f4 [50, 320]
0.019754222 0.0016565653 0.10613033 0.06108954 -0.009432075 0.01603765 0.012486671 -0.021304805
-0.05550508 -0.00695805 0.06599561 -0.012797846 -0.013254458 -0.08370876 0.023074506 -0.055733055
0.0104272785 -0.04302777 0.054319564 0.0199474 -0.04941578 -0.011044358 -0.00028892796 -0.021942103
0.013048249 -0.050283667 -0.010885256 -0.008563666 -0.04891408 -0.0004316254 -0.04980747 0.055999633
-0.013546206 -0.082911335 -0.038243245 0.03237186 -0.036843855 -0.024445882 0.026422597 0.08870735
-0.014990562 0.05104618 0.012208589 -0.012031848 -0.016181547 -0.058265056 0.020592077 -0.08829521
0.04437646 -0.022110937 -0.042795815 0.045289934 0.050034523 0.028670074 0.004786705 -0.0023717121
0.046805028 -0.023107495 -0.021544512 -0.011917612 0.04755931 -0.017761204 -0.008010215 -0.0075784028
-0.011066312 0.009289979 -0.08436928 0.0036886458 -0.047082804 0.115456976 -0.007424465 0.092090055
-0.07454859 0.016047964 0.010814362 -0.010531086 -0.095002934 -0.022918725 -0.018805893 0.025832538
-0.035594687 0.022748832 0.0490031 0.0904514 -0.0115030445 0.0073673152 0.013569413 -0.027625658
0.008437928 0.048465263 -0.05770803 -0.0037504348 0.030955886 0.051181998 0.04765364 0.01801035
0.03826665 -0.017155292 0.08702767 -0.0072573298 0.011951282 0.003489878 0.016217098 -0.09913033
-0.024080548 -0.03360348 0.05897362 -0.013532987 -0.056619994 -0.04733373 -0.026628252 0.03927942
-0.08880401 -0.008619678 -0.048565093 -0.106169514 -0.02758922 -0.016975733 0.008773884 0.061750893
0.035418518 -0.02119059 0.030773455 0.00028094955 -0.02981521 0.048027296 0.006513196 -0.0033978936
-0.0093316585 0.0504933 0.027280927 0.03149753 -0.03975915 0.020284444 -0.018788628 0.0016559554
-0.015079875 0.031068005 0.037985455 -0.035753008 0.014812608 0.0015370981 -0.04515111 0.009131833
-0.02716193 0.011243571 0.014296897 -0.001030522 0.014765136 -0.010838103 -0.023601139 0.049423628
-0.051255364 0.05781831 0.00011595992 0.04223188 -0.05585366 0.056922827 -0.039685156 0.013634803
-0.042813744 0.027976364 -0.09466639 -0.0123731075 -0.016102692 -0.09817548 -0.09426059 0.028174426
-0.043944467 0.0030860966 0.048839107 -0.012760995 0.019958803 0.07336306 -0.01882296 0.0033323758
-0.10221489 -0.04431166 -0.07974845 -0.0050559007 -0.09938919 0.0028696088 0.0045918263 -0.054164942
-0.005138652 -0.03697438 -0.033731006 -0.011839113 -0.014488019 0.053147014 0.084898725 -0.040281218
-0.051475435 -0.014611762 0.024993438 0.022157246 0.062613346 0.038355503 0.055845153 -0.034746025
0.02570117 -0.022007477 0.04781117 -0.027117845 -0.080020875 -0.007316602 -0.018511923 -0.067537345
0.010558631 0.014879432 0.0818873 -0.0055531813 -0.024032708 0.0068079974 0.052863374 0.026159128
0.045143202 -0.05494002 -0.0066882493 -0.022815278 0.03213117 0.015199343 -0.009874756 -0.01799053
0.023689844 -0.048702866 -0.008788973 -0.038619265 0.02528935 -0.035621654 0.009091286 0.057011805
-0.06067971 -0.019697683 0.0018087049 -0.032033425 -0.027274022 -0.0077613685 0.0053582704 -0.011887873
-0.0051366887 -0.031296063 -0.047462374 0.045287903 -0.07862675 -0.05771057 -0.041710872 0.0736834
-0.087028 -0.018113416 0.028084207 -0.009326107 -0.07956312 0.0030333463 0.059512775 0.031461798
00000000: 9bd3 a13c 1c21 d93a dc5a d93d 0739 7a3d
00000010: fd88 1abc 6461 833c e594 4c3c 6a87 aebc
00000020: 4b59 63bd 5b00 e4bb b528 873d 0fae 51bc
00000030: 3a29 59bc 806f abbd bf06 bd3c 5848 64bd
00000040: 2dd7 2a3c e33d 30bd 317e 5e3d bb68 a33c
00000050: 3368 4abd 65f3 34bc 417b 97b9 edbf b3bc
00000060: 53c8 553c 3ff6 4dbd 1358 32bc 9e4e 0cbc
00000070: 215a 48bd c84b e2b9 eb02 4cbd df5f 653d
00000080: e8f0 5dbc 6bcd a9bd f3a4 1cbd 5b98 043d
00000090: 95e9 16bd bb42 c8bc 3474 d83c 33ac b53d
000000a0: f99a 75bc cd15 513d 8906 483c 3a21 45bc
000000b0: 2a8f 84bc 57a7 6ebd b7b0 a83c 1ed4 b4bd
000000c0: 17c4 353d ff21 b5bc aa4a 2fbd f081 393d
000000d0: 00f1 4c3d 81dd ea3c cbd9 9c3b ba6e 1bbb
000000e0: a1b6 3f3d ee4b bdbc 1e7e b0bc 1642 43bc
000000f0: 8dcd 423d f27f 91bc 473d 03bc 4054 f8bb
00000100: 7a4f 35bc ff34 183c cdc9 acbd 35bd 713b
00000110: e6d9 40bd b574 ec3d ed48 f3bb b699 bc3d
00000120: eeac 98bd 0577 833c b92e 313c 938a 2cbc
00000130: e690 c2bd 0dc0 bbbc d10e 9abc c29e d33c
00000140: bccb 11bd c25b ba3c 79b7 483d 953e b93d
00000150: 4477 3cbc 8569 f13b 3e52 5e3c 344f e2bc
00000160: 3c3f 0a3c 8383 463d 415f 6cbd dbc9 75bb
00000170: 3397 fd3c 37a4 513d 7730 433d 718a 933c
00000180: 7ebd 1c3d 4189 8cbc 903b b23d e5ce edbb
00000190: 4fcf 433c 70b6 643b b8d9 843c d804 cbbd
000001a0: 9244 c5bc cda3 09bd 538e 713d 76b9 5dbc
000001b0: 5eea 67bd 03e1 41bd 7e23 dabc 75e3 203d
000001c0: e0de b5bd 8d39 0dbc 31ec 46bd 676f d9bd
000001d0: ca02 e2bc b110 8bbc 56c0 0f3c 81ee 7c3d
000001e0: 0213 113d e397 adbc 9d18 fc3c 694c 9339
000001f0: 073f f4bc 45b8 443d a66c d53b 32af 5ebb
00000200: d0e3 18bc 10d2 4e3d 407c df3c 8e03 013d
00000210: 7eda 22bd 902b a63c 9cea 99bc a50c d93a
00000220: 9411 77bc 5482 fe3c a396 1b3d bf71 12bd
00000230: 95b0 723c 7478 c93a 5ff0 38bd af9d 153c
00000240: b282 debc f436 383c 883d 6a3c 9512 87ba
00000250: 78e9 713c 4c92 31bc 2d57 c1bc 6e70 4a3d
00000260: 25f1 51bd e4d2 6c3d 822f f338 56fb 2c3d
00000270: cfc6 64bd e927 693d e78c 22bd 8264 5f3c
00000280: 775d 2fbd b02e e53c 74e0 c1bd 93b8 4abc
00000290: cbe9 83bc 3a10 c9bd b20b c1bd 0ece e63c
000002a0: 1dff 33bd 1c40 4a3b 840b 483d 7e13 51bc
000002b0: a580 a33c 5f3f 963d 9c32 9abc fd63 5a3b
000002c0: 0a56 d1bd 2580 35bd 2853 a3bd f8ab a5bb
000002d0: 8f8c cbbd 0c10 3c3b 0877 963b 0fdc 5dbd
000002e0: 2362 a8bb 7372 17bd 8629 0abd d7f8 41bc
000002f0: 285f 6dbc afb0 593d 62df ad3d ebfd 24bd
00000300: e8d7 52bd 2c66 6fbc 0abf cc3c 1d83 b53c
00000310: 6d3b 803d a91a 1d3d e3bd 643d d951 0ebd
00000320: 438b d23c 0649 b4bc a5d5 433d 3e26 debc
00000330: fce1 a3bd 1bc0 efbb 51a6 97bc 0551 8abd
00000340: 1cfe 2c3c dcc8 733c 87b4 a73d 76f7 b5bb
00000350: 3ee0 c4bc 9f15 df3b 4487 583d ab4b d63c
00000360: 14e8 383d c908 61bd 1a29 dbbb 1be7 babc
00000370: f99b 033d aa06 793c bbc9 21bc e060 93bc
00000380: 3411 c23c a87c 47bd a0ff 0fbc 3c2f 1ebd
00000390: 9c2b cf3c 03e8 11bd 9ef3 143c 3685 693d
000003a0: 4a8b 78bd 095d a1bc 1112 ed3a 7b35 03bd
000003b0: c56d dfbc 1453 febb 6e94 af3b 5ac5 42bc
000003c0: ab51 a8bb 4d30 00bd e867 42bd cf7f 393d
000003d0: 1007 a1bd eb61 6cbd 05d9 2abd 53e7 963d
000003e0: bc3b b2bd 9662 94bc da10 e63c 87cc 18bc
000003f0: fdf1 a2bd 1bcb 463b abc3 733d 16de 003d

fc1.bias f4 [50]
-0.012315995 -0.034483183 -0.058400616 0.011584038 0.050479714 0.004743579 0.02180747 0.006762875
0.061099008 0.05431952 0.037613157 0.014380844 0.03264408 -0.014932587 -0.02708187 -0.022099445
-0.019743787 0.05748189 0.009983356 0.031786267 0.03237167 0.040527984 -0.0014258431 0.040334724
-0.030393338 -0.014361404 0.036632914 -0.031729337 -0.03926014 -0.03433035 -0.025471076 -0.027202958
0.02589877 0.03179473 0.01243517 0.004606772 0.04572061 0.05225435 -0.00033796747 0.027157862
1.131482e-05 0.009316653 -0.01406252 0.0069636866 0.0701736 0.0052479426 0.032894857 0.025682256
0.031656496 0.05094745
00000000: 07c9 49bc 3d3e 0dbd 7c35 6fbd faca 3d3c
00000010: d1c3 4e3d 0670 9b3b 94a5 b23c 1b9b dd3b
00000020: f442 7a3d 257e 5e3d 4110 1a3d a29d 6b3c
00000030: cdb5 053d cfa7 74bc ccda ddbc e509 b5bc
00000040: b9bd a1bc 2172 6b3d 3b91 233c 5132 023d
00000050: 2898 043d ac00 263d 5be3 baba 0636 253d
00000060: 73fb f8bc 184c 6bbc 650c 163d 9ff6 01bd
00000070: 3ecf 20bd fb9d 0cbd b8a8 d0bc bdd8 debc
00000080: a829 d43c 313b 023d e2bc 4b3c 68f4 963b
00000090: 8945 3b3d a808 563d 3a31 b1b9 2a7a de3c
000000a0: c8d4 3d37 e0a4 183c 7c66 66bc a32f e43b
000000b0: 2db7 8f3d eff6 ab3b c2bc 063d 9863 d23c
000000c0: 3eaa 013d 46ae 503d

fc2.weight f4 [10, 50]
-0.01462438 0.12685972 0.14742757 0.15097544 0.24002358 -0.12071603 -0.1718705 -0.03466816
-0.30281428 0.16500694 -0.15488778 -0.117820315 -0.120017044 -0.24585614 -0.20710115 0.19597016
-0.17737363 0.18626311 -0.023079846 0.15618286 0.10152808 -0.20591871 -0.18721339 0.037099294
0.19947259 0.07325493 -0.0026148544 -0.13071813 0.113432266 0.16144569 -0.11298947 -0.15539575
0.10552657 -0.002310347 0.16780908 -0.132238 -0.029795354 -0.057885136 -0.21465681 0.04372212
0.0073677963 -0.12234275 0.21945469 -0.1068873 -0.17471667 0.23574919 -0.00816719 -0.19285233
0.14737935 0.14546178 0.217519 -0.24708493 -0.006968803 -0.07260975 -0.15353449 -0.11499214
-0.1690689 0.18123876 -0.051940117 -0.18295287 0.21416946 0.18157344 0.22489147 0.14253922
-0.14547756 0.006070287 0.13615693 -0.1827568 -0.042173836 -0.09242941 -0.010866479 0.10613189
0.07436627 0.30186743 -0.10184823 0.14177853 -0.11872145 0.18155701 -0.13747242 -0.15477644
0.1262063 -0.07271402 -0.052120678 -0.060289357 -0.08582243 -0.14098918 0.20975646 0.36614075
0.20732193 -0.024651075 -0.18178636 0.100783564 -0.092855595 0.030274585 0.21291468 -0.12391714
-0.049559068 -0.11813451 -0.10023802 -0.017934809 0.0039634565 -0.09366239 -0.048546854 -0.016969848
-0.14717975 0.18180011 0.032339036 0.19251375 -0.24526346 0.0044644605 -0.03155744 -0.100047745
0.18315016 -0.2081821 -0.024121094 0.09376302 0.18343168 0.17534149 -0.15262997 0.08583148
0.03310955 -0.17691162 -0.23864117 -0.131317 0.012536865 0.17651932 0.13128228 0.17674074
0.15146504 0.18652652 -0.03570506 -0.057795793 -0.098928295 0.083503306 -0.028923132 -0.10158517
0.12561142 0.07041684 -0.089724764 -0.14424278 -0.17727695 0.13536087 0.22704555 0.058922652
0.20325936 -0.13896997 0.15287352 -0.06289968 -0.06729877 0.15171751 -0.018968238 -0.022155555
0.08359691 0.17709352 -0.1254515 0.07575792 -0.040894784 0.2032547 0.088936634 -0.054153632
-0.1696721 -0.16950731 -0.0972765 0.2085934 0.1863865 -0.13038447 0.123651944 -0.07745702
-0.11636228 0.1055751 0.0020171378 -0.098820195 -0.14703089 -0.21360868 -0.06620985 0.16275124
-0.15303303 -0.09081654 0.13659617 -0.13171136 -0.103280865 0.20449793 -0.04201696 -0.1420672
-0.12747751 -0.09390328 0.19689246 -0.053807437 0.21193644 -0.070602685 -0.12236182 0.022479124
-0.058453556 0.20744184 -0.07745291 -0.07933813 0.10599918 -5.453265e-05 -0.16339989 0.13828263
0.00970278 -0.25357383 0.08459961 -0.18834814 -0.10808699 0.17248183 0.24970274 -0.065492965
0.12688683 -0.11962754 0.16877337 0.01147027 0.047419824 0.029032247 0.22249392 -0.026045319
-0.15988527 0.20529355 0.24690418 -0.16412336 0.025120245 0.067320645 0.12944092 -0.1302533
-0.026660172 -0.26249382 -0.1088117 0.20001309 -0.1135001 0.19038762 0.19811939 -0.10093181
0.105175495 0.3145336 -0.19025798 0.11990781 -0.111570284 -0.036104843 0.009175866 -0.15966794
-0.0822594 0.0269042 -0.111934684 -0.051343124 -0.09007406 -0.09509416 -0.10386841 0.2180763
0.042297956 -0.2122177 -0.106455706 0.122137405 -0.044713408 0.15018742 -0.12569742 -0.18166488
00000000: 189b 6fbc 84e7 013e 41f7 163e 4e99 1a3e
00000010: bec8 753e f739 f7bd d2fe 2fbe 3300 0ebd
00000020: 790a 9bbe 94f7 283e e79a 1ebe c74b f1bd
00000030: 7fcb f5bd b6c1 7bbe 5312 54be 67ac 483e
00000040: 6fa1 35be c2bb 3e3e f211 bdbc 66ee 1f3e
00000050: f4ed cf3d 5bdc 52be deb4 3fbe 6ef5 173d
00000060: 8b42 4c3e ae06 963d fa5d 2bbb f9da 05be
00000070: 2d4f e83d 0552 253e 0667 e7bd 1020 1fbe
00000080: 501e d83d 3169 17bb 25d6 2b3e 6669 07be
00000090: 6315 f4bc f718 6dbd ffce 5bbe f715 333d
000000a0: 8e6d f13b d68e fabd bbb8 603e bbe7 dabd
000000b0: ede8 32be 3c68 713e adcf 05bc 157b 45be
000000c0: 9dea 163e eff3 143e 4dbd 5e3e d503 7dbe
000000d0: 8e5a e4bb 6cb4 94bd 2538 1dbe 0081 ebbd
000000e0: 6620 2dbe a796 393e 29bf 54bd ff57 3bbe
000000f0: 3d4f 5b3e 63ee 393e f349 663e cdf5 113e
00000100: 12f8 14be 42e9 c63b b96c 0b3e 9924 3bbe
00000110: 79be 2cbd a14b bdbd 5109 32bc ad5b d93d
00000120: 584d 983d 5e8e 9a3e ce95 d0bd 642e 113e
00000130: 3b24 f3bd 15ea 393e 92c5 0cbe b77d 1ebe
00000140: 393c 013e 17eb 94bd 7e7c 55bd f9f1 76bd
00000150: acc3 afbd 785f 10be 66ca 563e cd76 bb3e
00000160: 334c 543e 0df1 c9bc 3426 3abe 9d67 ce3d
00000170: 132b bebd 6802 f83c 4e06 5a3e 45c8 fdbd
00000180: 73fe 4abd 82f0 f1bd 9749 cdbd 05ec 92bc
00000190: e2df 813b 11d2 bfbd 11d9 46bd 5a04 8bbc
000001a0: 4ab6 16be cf29 3a3e f075 043d 5322 453e
000001b0: 5826 7bbe 9c4a 923b 6042 01bd d5e5 ccbd
000001c0: b78b 3b3e b02d 55be 9a99 c5bc d406 c03d
000001d0: 84d5 3b3e b88c 333e 084b 1cbe 6ac8 af3d
000001e0: e19d 073d 5228 35be 5a5e 74be f777 06be
000001f0: 6c67 4d3c 7bc1 343e dd6e 063e 86fb 343e
00000200: a719 1b3e cf00 3f3e 783f 12bd 48bb 6cbd
00000210: eb9a cabd c803 ab3d 34f0 ecbc e30b d0bd
00000220: 48a0 003e b436 903d 9ec1 b7bd 61b4 13be
00000230: 1788 35be 0a9c 0a3e a17e 683e e158 713d
00000240: 3923 503e 254e 0ebe e08a 1c3e 8cd1 80bd
00000250: f0d3 89bd d65b 1b3e 4763 9bbc 917f b5bc
00000260: db34 ab3d 0158 353e 5c76 00be f826 9b3d
00000270: 4a81 27bd 0022 503e 6924 b63d 33d0 5dbd
00000280: 86be 2dbe 5393 2dbe e738 c7bd 8299 553e
00000290: 1adc 3e3e 8283 05be 3b3d fd3d c9a1 9ebd
000002a0: 594f eebd c237 d83d f531 043b 3e62 cabd
000002b0: 448f 16be 3cbc 5abe 0899 87bd 43a8 263e
000002c0: b1b4 1cbe 06fe b9bd dedf 0b3e 58df 06be
000002d0: eb84 d3bd e867 513e fa19 2cbd 107a 11be
000002e0: 7789 02be 5d50 c0bd 2d9e 493e 3065 5cbd
000002f0: de05 593e 2498 90bd d598 fabd 2426 b83c
00000300: ff6c 6fbd a26b 543e a29f 9ebd 087c a2bd
00000310: 1916 d93d fdb9 64b8 4d52 27be f699 0d3e
00000320: 69f8 1e3c 6ed4 81be 8f42 ad3d 56de 40be
00000330: b65c ddbd 149f 303e 13b2 7f3e 2d21 86bd
00000340: 9fee 013e 49ff f4bd edd2 2c3e cded 3b3c
00000350: 4a3b 423d 09d5 ed3c 72d5 633e fe5c d5bc
00000360: f7b8 23be 7938 523e 73d4 7c3e f40f 28be
00000370: f9c8 cd3c 68df 893d 298c 043e 1f61 05be
00000380: 6f66 dabc 9765 86be abd8 debd 3bd0 4c3e
00000390: be72 e8bd f9f4 423e cfdf 4a3e 56b5 cebd
000003a0: 4066 d73d 8c0a a13e fdd2 42be 3a92 f53d
000003b0: f67e e4bd ace2 13bd 5f56 163c fe7f 23be
000003c0: 9e77 a8bd 3266 dc3c 033e e5bd 2b4d 52bd
000003d0: c078 b8bd bac0 c2bd f6b8 d4bd 654f 5f3e
000003e0: 9f40 2d3d 994f 59be 7305 dabd 2d23 fa3d
000003f0: 6825 37bd bbca 193e d3b6 00be 5c06 3abe

fc2.bias f4 [10]
0.048638858 -0.0011288399 -0.09030878 0.10130283 0.08461072 0.083472386 -0.076299496 0.09141729
0.038934395 0.025843859
00000000: 8a39 473d 95f5 93ba cff3 b8bd dc77 cf3d
00000010: 6348 ad3d 92f3 aa3d e942 9cbd fd38 bb3d
00000020: ac79 1f3d 80b6 d33c
