python/11-deepLearning/06-rnn/recurrent_neural_network/model.ckpt (torch_old, 858671 bytes, 10 tensors)

lstm.weight_ih_l0 f4 [512, 28]
0	0x3d2a3ff2	0.04156489
1	0xbd16e2f4	-0.036837533
2	0x3db8ca76	0.09022991
3	0xbe5aad96	-0.2135528
4	0xbdb47dfc	-0.08813092
5	0xbecbc883	-0.39801416
6	0xbeff7c22	-0.49899393
7	0xbeedfee7	-0.46483538
8	0xbe3185e4	-0.17336231
9	0xbe4d9303	-0.20075612
10	0xbe6f32ce	-0.23359224
11	0xbe4f23f8	-0.20228565
12	0xbe41c450	-0.18922544
13	0xbe01c867	-0.12674104
14	0xbebaacd7	-0.3645999
15	0xbeef2e99	-0.4671524
16	0xbee445a4	-0.44584382
17	0xbecb5210	-0.39711046
18	0xbf12cf90	-0.57347965
19	0xbf06a3ab	-0.5259349
20	0xbec46c19	-0.38363722
21	0xbe2c7768	-0.16842425
22	0xbe1fb901	-0.15597917
23	0xbdaadb9c	-0.083426684
24	0xbe96e0f3	-0.29468498
25	0xbf262add	-0.64909154
26	0xbdccadb1	-0.099940665
27	0xbddfc643	-0.10926487
28	0x3df26107	0.11834913
29	0x3ebbd782	0.36687857
30	0x3e433d72	0.19066408
31	0xbe62a060	-0.2213149
32	0x3e0dec84	0.13859755
33	0x3e1e803d	0.15478607
34	0xbd359f5d	-0.044341434
35	0x3cee3c18	0.02908139
36	0xbc0974f2	-0.008389698
37	0xbe37f27d	-0.17963596
38	0xbeb38a4a	-0.35066444
39	0xbf0d8bd2	-0.55291474
40	0xbe920605	-0.28520218
41	0xbec92a03	-0.39289865
42	0xbece38ba	-0.40277654
43	0xbdd5f154	-0.1044642
44	0xbe18d90f	-0.14926551
45	0xbdb4c2fc	-0.08826253
46	0xbec17183	-0.37781915
47	0xbe94ee01	-0.29087833
48	0xbecaf236	-0.39637917
49	0xbe9721dc	-0.2951802
50	0xbe4a3504	-0.19746786
51	0xbea314b2	-0.31851727
52	0xbedddaad	-0.433309
53	0xbec58772	-0.385799
54	0xbe710aea	-0.2353932
55	0xbd28de4b	-0.04122762
56	0x3da73f7f	0.08166408
57	0x3eca04b6	0.3945672
58	0xbeae6cc5	-0.3406736
59	0xbe3ecae5	-0.18632086
60	0xbe8203d5	-0.2539355
61	0x3dce58ca	0.10075529
62	0x3e00e9d9	0.12589206
63	0xbd6833d7	-0.056690063
64	0x3c051659	0.008123004
65	0x3cd3f8e6	0.02587552
66	0x3e41ccf3	0.18925838
67	0x3e30dabe	0.17270944
68	0x3e4bbda9	0.19896568
69	0x3ece714c	0.40320814
70	0x3e9039b1	0.28169015
71	0x3e961c5e	0.29318517
72	0x3e2f85d7	0.171409
73	0x3d92d8aa	0.07170232
74	0x3e57274d	0.21011086
75	0x3e85221e	0.26002592
76	0x3e98d463	0.29849538
77	0x3e36975a	0.17831174
78	0x3e60eb32	0.2196472
79	0x3e7917ae	0.2432544
80	0x3e22b39a	0.15888825
81	0xbd3623ed	-0.044467855
82	0x3e74ef99	0.23919524
83	0x3e3f4fca	0.18682781
84	0xbe9f8596	-0.31156605
85	0x3ed2c205	0.4116365
86	0xbea029fc	-0.31282032
87	0xbeaa55fa	-0.3326872
88	0xbe945186	-0.28968447
89	0xbee6c49a	-0.4507187
90	0xbeff550a	-0.49869567
91	0xbe356cb6	-0.17717251
92	0xbd58cd21	-0.05293
93	0x3e0c1923	0.13681464
94	0x3e3bce5b	0.18340437
95	0x3e6db23a	0.2321252
96	0x3e7d9e93	0.24767523
97	0x3e776154	0.24158221
98	0x3e543b7a	0.20725814
99	0x3d88ff89	0.066893645
100	0xbd867354	-0.06564966
101	0xbce70b44	-0.028203614
102	0x3e9703e9	0.2949517
103	0x3f1b325c	0.6062372
104	0x3f6fb758	0.93639135
105	0x3f221803	0.6331789
106	0x3ed97a09	0.42475918
107	0x3eca8638	0.39555526
108	0x3ee02d19	0.43784407
109	0x3eadba97	0.3393142
110	0x3e9fa4ed	0.31180516
111	0x3dc97706	0.09837155
112	0x3da6a52e	0.08136974
113	0xbeea8574	-0.45804942
114	0xbeb43089	-0.3519328
115	0xbe7b4ea7	-0.24541722
116	0xbe723784	-0.2365399
117	0xbe8b00c3	-0.2714902
118	0xbc4353dd	-0.01192185
119	0x3d804bc9	0.06264455
120	0x3d110a56	0.035410248
121	0xbdd9583b	-0.10612532
122	0x3dc5717e	0.096407875
123	0x3d488398	0.048953623
124	0xbd59bcca	-0.05315856
125	0xbd8e4022	-0.06945826
126	0xbe05257a	-0.13002577
127	0xbe557a91	-0.20847537
128	0xbe0d42e2	-0.13795045
129	0xbe1ee516	-0.15517077
130	0xbe937a5e	-0.28804296
131	0xbe807fd9	-0.2509754
132	0xbe6d56cd	-0.23177643
133	0xbed20bae	-0.41024536
134	0xbebbd160	-0.36683178
135	0xbec06fca	-0.37585288
136	0xbe4ae03c	-0.19812101
137	0xbe385db3	-0.18004493
138	0x3e22b2f1	0.15888573
139	0x3e97b179	0.29627588
140	0x3e0220f0	0.12707877
141	0x3ef48a37	0.477617
142	0xbdc02f31	-0.09384001
143	0xbe88ca99	-0.2671707
144	0xbdb3b688	-0.087750494
145	0x3cef5aaf	0.029218046
146	0x3dbd9278	0.09256452
147	0xbe60e383	-0.21961789
148	0xbf2cf595	-0.6756223
149	0xbfa8be60	-1.3183098
150	0xbfb728cf	-1.4309329
151	0xbf95d041	-1.1704179
152	0xbf058571	-0.5215674
153	0xbd2ec302	-0.042666443
154	0xbc285ccd	-0.010276032
155	0xbbce7a98	-0.0063012354
156	0xbe6e8071	-0.23291184
157	0xbe60a995	-0.2193969
158	0xbd9a2648	-0.07526833
159	0x3d69109d	0.05690061
160	0x3dd5b13c	0.104341954
161	0x3ed96e01	0.4246674
162	0x3e9ff467	0.31241152
163	0x3e32aa4c	0.17447776
164	0x3e93c90f	0.28864333
165	0x3e705571	0.23470093
166	0x3e9b99fe	0.30390924
167	0x3ea12258	0.31471515
168	0xbd4a88ef	-0.049446996
169	0x3da116ae	0.07865654
170	0x3dfedc38	0.12444347
171	0x3da0aaa4	0.07845047
172	0x3eed748f	0.4637799
173	0x3f0d24c3	0.5513422
174	0x3e8a7c43	0.2704793
175	0x3c9cac1b	0.019125035
176	0xbd3e86fa	-0.046515442
177	0xbd6a3082	-0.057175167
178	0x3baebb64	0.0053323973
179	0x3d0cdf1d	0.034392465
180	0x3d93cf4e	0.072172746
181	0xbca6d50e	-0.020365264
182	0xbe31b92c	-0.17355794
183	0xbdadb28d	-0.084813215
184	0xbdd11118	-0.102083385
185	0xbd0ddfb5	-0.03463717
186	0xbdea4cc2	-0.11440422
187	0xbdcfde33	-0.10149803
188	0xbe6feb13	-0.23429517
189	0xbe21b507	-0.15791713
190	0xbdf15578	-0.1178388
191	0xbe11359f	-0.14180611
192	0xbd6cc1d6	-0.057802044
193	0x3e573836	0.21017537
194	0x3d89fed8	0.06738061
195	0xbbb88088	-0.0056305565
196	0xbe4995f7	-0.19686113
197	0x3e814730	0.25249624
198	0xbf096cb0	-0.5368147
199	0xbf04cd45	-0.51875716
200	0xbf17003d	-0.5898474
201	0xbf6eb0b1	-0.9323836
202	0xbf546fe9	-0.8298326
203	0xbf66b859	-0.9012504
204	0xbf6e19ee	-0.93008316
205	0xbf4dae3d	-0.8034399
206	0xbed73e01	-0.42039493
207	0xbe392e99	-0.18084182
208	0x3da7d144	0.08194211
209	0x3db6e284	0.08929923
210	0xbe48856c	-0.19582146
211	0xbe271879	-0.1631793
212	0x3d8f84ca	0.070077494
213	0xbd917fa0	-0.07104421
214	0x3b4d2d48	0.0031307507
215	0x3e9a6813	0.30157527
216	0x3eb4a33f	0.35280797
217	0x3e6a55b9	0.22884263
218	0xbe345030	-0.17608714
219	0x3aa9e954	0.0012963214
220	0x3e90557f	0.28190228
221	0x3d2e60f1	0.04257292
222	0xbe8f807b	-0.2802771
223	0xbdabca4b	-0.08388194
224	0xbd2a7773	-0.041617822
225	0xbc90178c	-0.017589353
226	0xbdf90428	-0.12158996
227	0xbe8b3d01	-0.2719498
228	0xbdee9b92	-0.116507664
229	0xbd952779	-0.072829194
230	0x3e00e2d9	0.12586536
231	0xbd008ed1	-0.0313862
232	0xbe233c8a	-0.15941063
233	0xbdd8aeb6	-0.105801985
234	0x3e2b8108	0.1674844
235	0x3dd54d3a	0.104151204
236	0x3e2adc18	0.16685522
237	0x3e18699e	0.1488404
238	0x3df93e6c	0.12170109
239	0x3c4f541e	0.012654332
240	0x3d12263e	0.035681
241	0xbe5aa168	-0.21350634
242	0xbe6ee45c	-0.233293
243	0xbe8000f3	-0.25000724
244	0xbe8ac16a	-0.27100688
245	0xbed17250	-0.40907526
246	0xbe878f6b	-0.26476607
247	0xbe0d2e14	-0.13787109
248	0xbe2a4d5a	-0.1663107
249	0x3e0849b8	0.13309371
250	0xbd7c0006	-0.06152346
251	0xbe31cdbe	-0.1736364
252	0xbe71789e	-0.23581168
253	0x3ebd5cfa	0.36984998
254	0xbe317bbc	-0.17332357
255	0xbddc51ce	-0.107577905

lstm.weight_hh_l0 f4 [512, 128]
0	0x3e0f3ddb	0.1398844
1	0xbe83e27f	-0.2575874
2	0x3d96e31e	0.07367538
3	0x3d5adeae	0.05343502
4	0x3ba459fe	0.0050156107
5	0x3ed73409	0.42031887
6	0xbd578e7b	-0.052626114
7	0x3c9076fe	0.017634865
8	0x3e3ffefb	0.18749611
9	0xbd6c4be0	-0.057689548
10	0x3deea1db	0.11651965
11	0xbe32b016	-0.17449984
12	0x3e198786	0.14993104
13	0x3cca2d6e	0.024679866
14	0xbcafab7e	-0.021444079
15	0xbec622e0	-0.38698483
16	0x3d81addf	0.063319914
17	0xbe12c44e	-0.14332697
18	0x3d8cbcc9	0.068719454
19	0x3e2b2c1b	0.16716044
20	0x3d344a27	0.04401603
21	0x3cae14d0	0.021250159
22	0xbe4c4d26	-0.19951305
23	0xbe9eda84	-0.3102609
24	0xbe287295	-0.1644996
25	0x3e3a0c07	0.1816865
26	0xbe79d417	-0.24397312
27	0xbd0ea715	-0.03482731
28	0x3d6589f3	0.05603976
29	0x3d9134cd	0.07090149
30	0xbddd39a9	-0.108020134
31	0xbde33c9b	-0.11095544
32	0xbc8bd06a	-0.017067153
33	0x3d49dd2c	0.04928319
34	0x3ee96d77	0.45591328
35	0xbeafc194	-0.34327376
36	0xbe70277b	-0.2345256
37	0xbe2d5f8d	-0.16930981
38	0xbb2be630	-0.0026229732
39	0x3e953a39	0.29145983
40	0xbd08f70a	-0.03343872
41	0x3e8a8b35	0.27059332
42	0x3e1e8945	0.15482052
43	0xbbe54fa0	-0.0069980174
44	0xbdd58f63	-0.104277395
45	0x3e5bf5d0	0.21480489
46	0xbde3726a	-0.11105807
47	0x3d446512	0.04794795
48	0x3d20b843	0.039238226
49	0x3eb0c517	0.34525368
50	0xbe1bfc7a	-0.15233031
51	0xbd7e7e4d	-0.06213217
52	0x3f093144	0.535908
53	0xbed24cb8	-0.41074157
54	0x3e119fe6	0.14221153
55	0xbe06ecf1	-0.13176323
56	0xbbca85bb	-0.0061804927
57	0x3d8e58b4	0.069505125
58	0x3eacbb09	0.33736446
59	0xbd74a305	-0.05972578
60	0x3ded9920	0.11601472
61	0xbe5b3179	-0.21405591
62	0x3d93d23c	0.072178334
63	0x3ecbbc24	0.39791977
64	0x3ea95439	0.3307207
65	0xbd40d782	-0.047080524
66	0x3e98ec5c	0.29867828
67	0xbe6c9a8a	-0.23105827
68	0xbd7ba098	-0.06143245
69	0xbe97a156	-0.29615277
70	0x3eb5b6a6	0.35490912
71	0xbdb48fab	-0.08816465
72	0xbcdb8c21	-0.026800217
73	0xbe456372	-0.19276217
74	0x3cc305ef	0.02380654
75	0x3c7a5a83	0.015280369
76	0xbce6472c	-0.02811011
77	0x3de9aa82	0.11409475
78	0xbe6171a5	-0.22016008
79	0x3b8d62e2	0.0043147663
80	0x3dd2f2db	0.10300227
81	0x3da590bb	0.08084246
82	0x3dcd1522	0.100137964
83	0x3d92eb4b	0.07173785
84	0x3f052d33	0.52022094
85	0xbc1982e1	-0.009369583
86	0xbdfb2f53	-0.12264886
87	0x3e0e7e8d	0.13915463
88	0xbd459c99	-0.048245046
89	0xbc4973f8	-0.0122957155
90	0x3d972a85	0.07381157
91	0xbe00da71	-0.12583329
92	0x3dfac56d	0.12244687
93	0x3e4b831f	0.19874237
94	0xbe324c82	-0.17411998
95	0x3e8d5a12	0.2760778
96	0xbe74d8fe	-0.23910901
97	0x3e4eb69d	0.20186849
98	0xbec008c0	-0.37506676
99	0xbcb9da4e	-0.022687104
100	0xbf2666b1	-0.65000445
101	0xbded1542	-0.1157632
102	0xbe53f49c	-0.2069878
103	0xbde3ad3e	-0.11117028
104	0x3e0c0261	0.13672782
105	0x3d53183c	0.051536784
106	0x3e739f65	0.23791273
107	0xbcfff4a5	-0.031244585
108	0xbd11cb6f	-0.0355944
109	0xbd67079d	-0.056403745
110	0xbdbd3237	-0.09238093
111	0xbeca893c	-0.39557827
112	0xbe66e554	-0.22548419
113	0x3de88ff1	0.1135558
114	0x3de9856e	0.11402403
115	0x3c59fad4	0.013304431
116	0x3c612297	0.013741157
117	0x3d81740f	0.063209645
118	0xbdbc168a	-0.091839865
119	0xbeaa1174	-0.3321644
120	0x3d897313	0.06711402
121	0xbe5d6096	-0.21618876
122	0x3f2bd008	0.67114305
123	0x3dc1e958	0.09468335
124	0xbe7843cf	-0.24244617
125	0xbdfe9be5	-0.12432078
126	0x3ed57564	0.41691124
127	0x3dfc3a9a	0.12315865
128	0x3db75023	0.08950832
129	0xbf00288c	-0.5006187
130	0x3e2220a4	0.15832764
131	0x3ec8153c	0.390787
132	0xbea12c73	-0.31479225
133	0x3ef1f94b	0.47260508
134	0xbdeff5b4	-0.11716786
135	0x3e37fe67	0.1796814
136	0xbd8211b0	-0.0635103
137	0xbdab72b3	-0.083714865
138	0x3e3a9308	0.1822015
139	0xbe436c9e	-0.19084403
140	0x3d5143ae	0.051089935
141	0x3e95c29c	0.29250038
142	0xbeaee715	-0.34160677
143	0x3ea9f579	0.33195093
144	0x3eaada19	0.3336952
145	0xbed031e5	-0.40663067
146	0x3e6a8100	0.22900772
147	0x3e80b64d	0.25139084
148	0xbc5bd30c	-0.013417017
149	0x3d998ac6	0.07497172
150	0xbebfaa62	-0.3743468
151	0x3c212db4	0.009837557
152	0xbdb5a11f	-0.08868622
153	0x3e173b4c	0.14768714
154	0xbe2c1198	-0.16803586
155	0x3d863d33	0.065546416
156	0xbcb4afb3	-0.022056436
157	0xbd522a34	-0.05130978
158	0xbe2afb2a	-0.16697374
159	0xbe734f86	-0.23760805
160	0xbdab60e6	-0.08368091
161	0x3e08b955	0.13351949
162	0x3e615a18	0.22007024
163	0xbf2e5d01	-0.6811066
164	0xbe67b3cd	-0.22627182
165	0x3e915c51	0.28390744
166	0xbe51de1f	-0.20494889
167	0x3e3badf2	0.18328074
168	0x3d4e84a0	0.05041945
169	0x3bee7163	0.0072767003
170	0x3f090805	0.5352786
171	0xbdc8f869	-0.098130055
172	0xbde9b4bd	-0.11411426
173	0x3e9a15f7	0.30094883
174	0xbdd14ca6	-0.10219698
175	0x3e6eaddf	0.23308514
176	0x3c4070f5	0.011745681
177	0x3ebddcd6	0.37082547
178	0x3e45ae51	0.19304778
179	0xbe6504f6	-0.22365174
180	0x3f1d236f	0.6138219
181	0xbe8b8fa1	-0.27258018
182	0x3da00797	0.07813948
183	0xbe6f64a9	-0.23378243
184	0x3e3b6089	0.18298544
185	0xbe85eaab	-0.261556
186	0xbcccbb29	-0.024991589
187	0x3e751148	0.23932374
188	0x3e301aff	0.17197798
189	0xbe3f9712	-0.18709973
190	0x3d809ccb	0.06279906
191	0x3e87ccc1	0.26523402
192	0x3edae414	0.42752135
193	0xbed56130	-0.4167571
194	0x3e9ee3f5	0.31033292
195	0xbedccdcf	-0.4312577
196	0xbe366303	-0.17811207
197	0xbee6d0e8	-0.45081258
198	0x3eb2fccc	0.34958494
199	0xbe0fcd1c	-0.14043087
200	0xbe8d9a97	-0.27657005
201	0xbe25f980	-0.16208458
202	0x3eb6bf31	0.35692742
203	0x3e2f11ab	0.17096584
204	0x3d2e0e06	0.042493843
205	0x3e028924	0.12747627
206	0xbe8c17b2	-0.27361828
207	0x3e65ddbd	0.22447868
208	0x3e300341	0.17188741
209	0xbc360651	-0.011109904
210	0xbd62b626	-0.05534949
211	0x3e8222e8	0.25417256
212	0x3d8e160d	0.069377996
213	0x3db77068	0.08956987
214	0xbea77f8d	-0.327145
215	0x3ca6cdba	0.02036177
216	0xbc425ed3	-0.011863428
217	0xbe49185a	-0.19638196
218	0xbe018238	-0.12647331
219	0x3ec5b350	0.38613367
220	0x3dee8a10	0.11647427
221	0x3ebb2a35	0.3655564
222	0x3d1c5d2f	0.038174804
223	0xbd01a986	-0.03165581
224	0xbd1de99e	-0.038552873
225	0x3b870f38	0.0041216873
226	0xbe96f3f9	-0.2948301
227	0x3e762828	0.24038756
228	0xbe98159c	-0.29703987
229	0xbea49c7c	-0.32150638
230	0x3c47a317	0.01218488
231	0xbd8e4dd7	-0.069484405
232	0xbec50bf9	-0.38485697
233	0x3e86769b	0.26262364
234	0x3e0dfe0e	0.13866445
235	0x3b73e910	0.0037217773
236	0x3e0941be	0.13403985
237	0xbea36b54	-0.31917822
238	0xbe214060	-0.15747213
239	0xbeaebf36	-0.34130257
240	0xbcfe7494	-0.031061448
241	0x3e2cb80c	0.16867083
242	0x3c6c0b13	0.014406937
243	0x3da30abf	0.07961034
244	0x3e77ba42	0.24192145
245	0xbd12e03a	-0.03585837
246	0xbe53daab	-0.20688884
247	0xbcdd3fb9	-0.027007924
248	0x3dc68eac	0.09695181
249	0x3dad4d04	0.08461955
250	0x3f1bd0ef	0.6086568
251	0xbe1591f6	-0.14606461
252	0x3e03ace8	0.12858927
253	0xbd320b8d	-0.043468047
254	0x3ea3dc32	0.32003933
255	0x3e5fc68b	0.21853082

lstm.bias_ih_l0 f4 [512]
0	0xbe93277d	-0.28741065
1	0xbe697b1f	-0.22800873
2	0xbe947210	-0.28993273
3	0xbecbbc3b	-0.39792046
4	0xbe90b451	-0.2826257
5	0x3d988c99	0.07448692
6	0x3cadcc2c	0.02121552
7	0xbeb5df8b	-0.35522112
8	0xbe64092c	-0.22269124
9	0xbeab7137	-0.33484814
10	0xbeb9771b	-0.36223683
11	0xbe9f4c27	-0.31112787
12	0xbe897336	-0.2684571
13	0xbe82e079	-0.25561884
14	0xbdede5dd	-0.116161086
15	0xbe18eae4	-0.14933354
16	0xbeae90f5	-0.34094968
17	0x3d6260c5	0.055268068
18	0xbf02c0cd	-0.5107544
19	0xbe3a9db8	-0.18224227
20	0xbde1f2b5	-0.11032621
21	0xbe9a6939	-0.30158404
22	0xbf3697a8	-0.7132516
23	0x3dc0156b	0.09379085
24	0xbe6ce93e	-0.2313585
25	0xbe482fae	-0.19549438
26	0xbe85bcce	-0.2612061
27	0xbe5b9da0	-0.21446848
28	0xbd57d0da	-0.05268941
29	0xbe8bd8d4	-0.27313864
30	0xbee03551	-0.43790677
31	0xbedf688b	-0.43634447
32	0xbe91ea98	-0.28499293
33	0xbe555568	-0.20833361
34	0xbd5827dd	-0.05277239
35	0xbea0a652	-0.31376892
36	0xbed7226e	-0.42018455
37	0xbde2a2e9	-0.11066229
38	0xbebcb9b4	-0.3686043
39	0xbe8afc5a	-0.27145654
40	0xbe6d5b44	-0.23179346
41	0xbe7ea553	-0.24867754
42	0xbe3618c7	-0.1778289
43	0xbdfdf40f	-0.12400066
44	0xbeb43fde	-0.35204977
45	0xbe841b4c	-0.25802076
46	0xbe5a8db6	-0.21343121
47	0xbdb3a96e	-0.087725505
48	0xbe97be4c	-0.29637372
49	0xbef7ffd0	-0.48437357
50	0xbe52b326	-0.20576152
51	0xbd3d76ea	-0.046255983
52	0xbe2bead5	-0.167888
53	0xbe22c49b	-0.15895312
54	0xbeb16740	-0.34649086
55	0xbe8576d7	-0.2606723
56	0xbe241350	-0.16022992
57	0xbe353429	-0.17695679
58	0xbe03fba7	-0.12888967
59	0xbf147135	-0.5798524
60	0xbe83d5c0	-0.25749016
61	0x3c88fa81	0.016721012
62	0xbeee376d	-0.46526662
63	0x3c88059d	0.01660424
64	0xbe8cbaeb	-0.27486357
65	0xbee6f725	-0.4511043
66	0xbec5bf1b	-0.38622364
67	0x3b722de4	0.0036953622
68	0xbea813bb	-0.32827553
69	0xbe377f21	-0.1791959
70	0xbe88e674	-0.26738322
71	0xbf07eb2d	-0.53093225
72	0xbea83146	-0.32850093
73	0xbe8a88e2	-0.27057558
74	0xbee636c8	-0.4496367
75	0xbea283fb	-0.31741318
76	0xbe837e5d	-0.25682345
77	0xbf003821	-0.50085646
78	0xbea87766	-0.32903594
79	0xbed6d994	-0.41962874
80	0xbe6f9ae6	-0.23398933
81	0xbb6502e0	-0.003494434
82	0xbe7fbb29	-0.2497374
83	0xbeb4c2b1	-0.35304788
84	0xbe8caf68	-0.27477574
85	0xbe6cb3d3	-0.23115472
86	0x3cd4185b	0.02589052
87	0xbd6bb964	-0.05754985
88	0xbe4352d5	-0.19074567
89	0xbe702fc5	-0.23455723
90	0xbe8bf62f	-0.2733626
91	0xbe49f7f3	-0.19723491
92	0xbe8581a6	-0.26075476
93	0xbf05fd26	-0.523394
94	0xbe624062	-0.22094873
95	0xbe0776ef	-0.13228963
96	0xbeb3b2b7	-0.35097286
97	0xbe9483b9	-0.29006746
98	0xbe861294	-0.2618605
99	0xbe332635	-0.17495044
100	0xbeada8a2	-0.3391772
101	0xbeb158ba	-0.34638005
102	0xbdf7562d	-0.120769836
103	0xbe8bf5ae	-0.27335876
104	0xbe1b6d16	-0.15178332
105	0xbe879c69	-0.2648652
106	0xbe8ece70	-0.27891874
107	0xbe52915c	-0.20563263
108	0xbe22d6a5	-0.15902193
109	0xbed56226	-0.41676444
110	0xbe91a95b	-0.2844952
111	0xbdc4978b	-0.09599217
112	0xbea0dc59	-0.31418112
113	0xbe87fa11	-0.26557973
114	0xbf173002	-0.5905763
115	0xbeb1c3b1	-0.34719613
116	0xbeb0951f	-0.3448877
117	0xbd94d4f3	-0.07267179
118	0xbe394dd6	-0.18096098
119	0xbe9a4312	-0.30129296
120	0xbeb6ba69	-0.35689095
121	0xbec49cb0	-0.38400793
122	0xbe33ed4f	-0.17570995
123	0xbecd64ed	-0.40116063
124	0xbece1188	-0.4024775
125	0xbe3f7a0f	-0.18698905
126	0xbe78ba42	-0.24289802
127	0xbe218795	-0.15774377
128	0xbee33f1f	-0.44384095
129	0xbea6af55	-0.32555643
130	0x3dbe915e	0.0930507
131	0xbe9a9e8e	-0.30199093
132	0xbdcbe211	-0.09955228
133	0x3e054985	0.13016327
134	0xbe0dc584	-0.13844877
135	0xbdc3e992	-0.095660344
136	0xbea0fe8d	-0.31444207
137	0x3c7de386	0.01549614
138	0xbeab8534	-0.33500063
139	0x3e0c9177	0.13727365
140	0x3e1f58af	0.15561174
141	0xbe67fc8c	-0.22654933
142	0xbe0900f5	-0.13379271
143	0xbe8140b4	-0.25244677
144	0xbe26c6d8	-0.1628679
145	0xbe6222e8	-0.22083628
146	0xbdc1cf9e	-0.09463428
147	0xbe47f3d9	-0.19526614
148	0xbdb25c3e	-0.08709
149	0x3d093150	0.033494294
150	0x3dcdf932	0.10057296
151	0xbea507e4	-0.32232583
152	0xbe70e1a1	-0.2352357
153	0xbe8ca426	-0.27468985
154	0xbde6e7a5	-0.112746514
155	0x3d95ed7a	0.07320686
156	0xbea81d56	-0.32834882
157	0x3e5e952b	0.2173659
158	0xbe4b4fe5	-0.19854696
159	0xbec76ec6	-0.389517
160	0xbdafd996	-0.08586423
161	0xbeb51a6a	-0.35371715
162	0xbe440d9d	-0.19145818
163	0xbdf1868c	-0.11793241
164	0x3e7eea21	0.24894
165	0xbe87396e	-0.26411003
166	0xbe75ecaf	-0.24016069
167	0xbe9b0d8e	-0.3028378
168	0xbdaee039	-0.08538861
169	0x3e2b8eb5	0.16753657
170	0x3e4dc9cf	0.20096515
171	0x3e96e830	0.2947402
172	0x3dcb6cc4	0.09932855
173	0xbeec926a	-0.46205455
174	0x3d0ca864	0.034340277
175	0xbe0afa23	-0.13571982
176	0xbe373a55	-0.17893346
177	0xbd724f15	-0.05915745
178	0xbd9b2b90	-0.07576668
179	0xbe04858a	-0.12941566
180	0xbead6668	-0.33867192
181	0xbea9c986	-0.33161563
182	0xbe16af3e	-0.14715287
183	0x3e22e7e6	0.15908775
184	0xbeab462e	-0.3345198
185	0x3ded13bd	0.115760304
186	0xbe992bc6	-0.2991621
187	0x3e973220	0.2953043
188	0xbd7a68d2	-0.06113512
189	0x3e649d99	0.22325744
190	0xbd9953ae	-0.07486664
191	0xbd65df8a	-0.056121387
192	0xbe14e1fb	-0.1453933
193	0xbdc04ebe	-0.09390019
194	0xbeb8ebcb	-0.36117396
195	0xbd752fb5	-0.05985995
196	0x3e6577fd	0.22409053
197	0xbe2fde48	-0.17174637
198	0xbe8fc124	-0.28077042
199	0x3ddf20cd	0.10894928
200	0x3cb893a8	0.022531345
201	0x3e824488	0.2544291
202	0xbe2f13f7	-0.1709746
203	0x3e1ba445	0.15199383
204	0x3d57fb09	0.05272964
205	0x3ce059f4	0.027386643
206	0xbe2e188d	-0.17001553
207	0xbe62e505	-0.22157677
208	0xbcf424b2	-0.029802654
209	0x3d6037d1	0.05474073
210	0xbdb6a5ce	-0.089183435
211	0xbe844606	-0.25834674
212	0xbe8f8d3f	-0.2803745
213	0xbe2d3774	-0.16915685
214	0xbdb4747e	-0.088112816
215	0x3d88806a	0.06665118
216	0xbd53e51e	-0.051732175
217	0xba2a43be	-0.000649508
218	0xbdfaeeb8	-0.12252563
219	0xbe8f3680	-0.27971268
220	0xbe0f331c	-0.1398434
221	0xbd84d5ff	-0.06486129
222	0xbccaf60c	-0.024775527
223	0xbbc3a1df	-0.0059702243
224	0xbc8713ee	-0.016488995
225	0xbe0bb648	-0.13643754
226	0xbdeeeeef	-0.11666667
227	0x3d0b6cb2	0.034039207
228	0xbef0b781	-0.47015002
229	0xbdfe3052	-0.1241156
230	0x3da5db33	0.080984496
231	0x3de3e9e7	0.11128598
232	0x3dbf8350	0.09351218
233	0xbd91b8fd	-0.07115362
234	0xbe52816c	-0.20557183
235	0xbd84daa6	-0.064870164
236	0x3e027c4a	0.12742725
237	0xbdbd3f84	-0.0924063
238	0xbe65b290	-0.22431397
239	0x3bf323f4	0.0074200574
240	0x3babc8a8	0.005242426
241	0xbe6efa1e	-0.233376
242	0x3cffe094	0.031235017
243	0xbbef0a50	-0.0072949305
244	0x3d4c79bc	0.049920782
245	0xbddc5bfe	-0.107597336
246	0x3d90cf24	0.07070759
247	0xbdba8779	-0.091078706
248	0xbe65c429	-0.2243811
249	0x3c85c2b8	0.0163282
250	0xbe8b1c3f	-0.27169988
251	0xbdf74042	-0.12072803
252	0xbee22c84	-0.44174588
253	0xbe41e910	-0.18936563
254	0xbe3a1e69	-0.18175663
255	0xbe202f09	-0.15642942

lstm.bias_hh_l0 f4 [512]
0	0xbeb94354	-0.3618418
1	0xbe08d8b8	-0.13363922
2	0xbe9f0ea0	-0.31065845
3	0xbececd71	-0.40391114
4	0xbe7e7da2	-0.24852613
5	0x3e04fc7d	0.12986942
6	0x3d3f7970	0.04674667
7	0xbed52bf9	-0.4163511
8	0xbe7bb867	-0.24582063
9	0xbead6550	-0.33866358
10	0xbed10468	-0.40823674
11	0xbe4f508e	-0.20245573
12	0xbe71a0bc	-0.23596472
13	0xbe9a40e4	-0.30127633
14	0xbe32a536	-0.17445835
15	0xbe6738bd	-0.22580238
16	0xbe9433a9	-0.28945664
17	0x3d7ba5f7	0.061437573
18	0xbee80d32	-0.45322567
19	0xbe9076a4	-0.28215516
20	0x3b35cd78	0.0027740877
21	0xbec136b4	-0.37737048
22	0xbf3bbd3a	-0.7333561
23	0x3dff7bd3	0.124747895
24	0xbec46fc7	-0.3836653
25	0xbe720212	-0.23633602
26	0xbec4b4a3	-0.38419065
27	0xbe31d985	-0.17368133
28	0xbc93cd63	-0.018042272
29	0xbee07d59	-0.43845633
30	0xbeb97984	-0.36225522
31	0xbed9eb88	-0.4256251
32	0xbec7328a	-0.38905746
33	0xbe443675	-0.19161399
34	0xbdc181cc	-0.09448585
35	0xbeca2d9f	-0.3948793
36	0xbef0244d	-0.46902695
37	0xbda99d1f	-0.082819216
38	0xbea8e669	-0.3298829
39	0xbe6e7fd6	-0.23290953
40	0xbe5e9783	-0.21737485
41	0xbea636c4	-0.32463658
42	0xbe35d3ca	-0.17756572
43	0xbbfb98ca	-0.007678126
44	0xbeac3617	-0.33635017
45	0xbe47c8f0	-0.19510245
46	0xbe5ae450	-0.21376157
47	0xbd25a918	-0.040444463
48	0xbe90e4d5	-0.28299585
49	0xbf045565	-0.516928
50	0xbe9843bf	-0.29739186
51	0xbe6155ec	-0.22005433
52	0xbd909533	-0.070597075
53	0xbe61a66a	-0.22036138
54	0xbec33ce3	-0.3813239
55	0xbeb49a33	-0.35273895
56	0xbe895824	-0.26825058
57	0xbeae1a33	-0.34004363
58	0xbe4678ba	-0.19381991
59	0xbed1efc2	-0.41003233
60	0xbe4e70ee	-0.20160267
61	0x3c226746	0.009912318
62	0xbed41a00	-0.41426086
63	0x3d4d7050	0.050155938
64	0xbe8bfa29	-0.27339295
65	0xbefd3e69	-0.49461678
66	0xbeb498ff	-0.35272977
67	0xbdc5da56	-0.09660785
68	0xbe95c535	-0.2925202
69	0xbe2063d5	-0.15663083
70	0xbeaabf34	-0.33349
71	0xbee76dcc	-0.45200956
72	0xbe33e257	-0.1756681
73	0xbdf618cc	-0.120164484
74	0xbf137553	-0.576009
75	0xbee5e974	-0.44904673
76	0xbe8cd580	-0.27506638
77	0xbebda104	-0.37036908
78	0xbec177b2	-0.37786633
79	0xbeb6a9f2	-0.35676533
80	0xbe495859	-0.19662608
81	0xbe232ee2	-0.15935853
82	0xbea3385c	-0.31878936
83	0xbee3359c	-0.44376838
84	0xbeb627a4	-0.35577118
85	0xbea77d9c	-0.3271302
86	0xbc333775	-0.010938515
87	0xbe134c14	-0.1438449
88	0xbe67163d	-0.22567077
89	0xbe5e4986	-0.21707734
90	0xbead4c1b	-0.33847126
91	0xbe91b790	-0.2846036
92	0xbea94644	-0.3306142
93	0xbec36626	-0.3816387
94	0xbe84abcc	-0.2591232
95	0xbe59898b	-0.21243875
96	0xbe7f7455	-0.24946721
97	0xbe946fe7	-0.28991625
98	0xbde347ec	-0.110977024
99	0xbe52b9e5	-0.20578726
100	0xbe8b2c2d	-0.2718214
101	0xbe62c2f4	-0.22144681
102	0xbdcc2d64	-0.09969595
103	0xbeccaebc	-0.39977062
104	0xbe765c1a	-0.24058571
105	0xbe8a19cf	-0.26972815
106	0xbe79fd82	-0.24413112
107	0xbe89c1d3	-0.2690569
108	0xbe71bb54	-0.23606616
109	0xbef8561f	-0.48503205
110	0xbed63770	-0.4183917
111	0xbe2679bf	-0.1625738
112	0xbe605b2f	-0.21909784
113	0xbe5a06b3	-0.21291618
114	0xbf04b70f	-0.51841825
115	0xbebe2a5d	-0.37141696
116	0xbeb9e259	-0.36305502
117	0xbdba5a86	-0.09099297
118	0xbdc3c021	-0.0955813
119	0xbe40980d	-0.18808003
120	0xbeaeb77f	-0.3412437
121	0xbed05daf	-0.40696475
122	0xbe559104	-0.208561
123	0xbead00fb	-0.3378981
124	0xbef933fc	-0.48672473
125	0xbd970786	-0.07374482
126	0xbe6be57f	-0.23036765
127	0xbe2ac448	-0.16676438
128	0xbee1231d	-0.43972102
129	0xbe9c49bc	-0.30525005
130	0x3da6e106	0.081483886
131	0xbead6779	-0.33868006
132	0xbe12d6e5	-0.14339788
133	0x3e629a47	0.22129165
134	0xbdacde47	-0.084408335
135	0xbdedcd26	-0.116113946
136	0xbe544952	-0.20731094
137	0xbd88ecc7	-0.06685787
138	0xbec57ad1	-0.38570264
139	0x3e6242ba	0.22095767
140	0x3e6af2f0	0.22944236
141	0xbdffda54	-0.12492815
142	0xbd2ad370	-0.04170555
143	0xbea7396f	-0.32661006
144	0xbe3c8597	-0.18410335
145	0xbe43d070	-0.19122481
146	0xbc5ae5a4	-0.013360415
147	0xbd7f3935	-0.062310416
148	0xbd89909b	-0.067170344
149	0x3d819226	0.06326704
150	0x3d15c61f	0.036565896
151	0xbec18d4c	-0.37803113
152	0xbe0a7b0a	-0.13523498
153	0xbe3d8e19	-0.18511237
154	0xbdd53cdf	-0.10412001
155	0x3cc6d44a	0.02427115
156	0xbea02eca	-0.31285697
157	0x3e531ded	0.20616885
158	0xbe60336c	-0.21894616
159	0xbedf3166	-0.43592376
160	0xbc9738ce	-0.018459704
161	0xbebd0f74	-0.36925852
162	0xbe23a174	-0.15979558
163	0xbc990b39	-0.01868211
164	0x3e706334	0.23475343
165	0xbe93264c	-0.28740156
166	0xbe4be68e	-0.19912168
167	0xbe8b048d	-0.2715191
168	0xbb2cb3cf	-0.0026352291
169	0x3e8161f4	0.25270045
170	0x3e4d3776	0.20040688
171	0x3e5472ca	0.20746914
172	0x3cde1c23	0.027113026
173	0xbed7ecf8	-0.4217298
174	0xbcd5f717	-0.026118798
175	0xbdd16bbe	-0.10225628
176	0xbe47ee61	-0.19524528
177	0xbdc3ff85	-0.09570221
178	0x3cd360fc	0.025803082
179	0xbe32f231	-0.17475201
180	0xbe9823ef	-0.29714915
181	0xbea9e06b	-0.3317903
182	0xbe11d4a5	-0.14241274
183	0x3deaff32	0.11474456
184	0xbec32aa1	-0.3811846
185	0x3c8e207b	0.017349472
186	0xbe6a9bbe	-0.22910973
187	0x3e3a9c78	0.1822375
188	0xbe04f8c6	-0.12985525
189	0x3e5cd53b	0.21565716
190	0xbd7325fe	-0.059362404
191	0xbd741d6d	-0.059598375
192	0xbcc419ba	-0.023938049
193	0xbd5521c0	-0.05203414
194	0xbec91984	-0.3927728
195	0xbd0d1be9	-0.034450445
196	0x3dbcad84	0.09212783
197	0xbd754771	-0.059882585
198	0xbe5a9a63	-0.21347956
199	0x3d39869e	0.045294397
200	0x3dd220b3	0.10260143
201	0x3e39453e	0.1809282
202	0xbe2d6aaa	-0.1693522
203	0x3e31dca5	0.17369325
204	0xbc13a5f2	-0.009011732
205	0x3e2f0d60	0.17094946
206	0xbe041f8e	-0.12902662
207	0xbea7a9e6	-0.3274681
208	0xbb97af98	-0.0046290867
209	0x3d9a3279	0.07529158
210	0xbddcc05c	-0.10778877
211	0xbe5128aa	-0.20425668
212	0xbe726b17	-0.23673664
213	0xbd49a443	-0.049228918
214	0xbe2a823b	-0.16651241
215	0x3a38366f	0.0007027154
216	0xbdae46c0	-0.08509588
217	0x3d67ec85	0.056622047
218	0xbe0b8a5c	-0.13626999
219	0xbeb9ca89	-0.36287335
220	0xbe199093	-0.14996557
221	0xbc63087b	-0.013857002
222	0xbdfaef4f	-0.12252676
223	0x3ccda1a1	0.025101485
224	0xbd2224fa	-0.039586045
225	0xbd8025e8	-0.0625723
226	0xbce5517a	-0.027992953
227	0x3e0768ec	0.13223618
228	0xbee0fdb0	-0.43943548
229	0xbd9c5911	-0.076341756
230	0x3df60f0c	0.12014589
231	0x3ddf1182	0.10892011
232	0xbd055283	-0.032549392
233	0xbd47cd8e	-0.048780017
234	0xbe586dc2	-0.2113562
235	0xbe13e1c6	-0.14441594
236	0x3e6b1f09	0.22961058
237	0xbdb5d06e	-0.088776454
238	0xbe4dc871	-0.20095994
239	0xbdac9d70	-0.08428466
240	0x3c26558a	0.01015223
241	0xbe482a3d	-0.19547363
242	0x3dd70c25	0.10500363
243	0xbd231de0	-0.039823413
244	0x3d2403dd	0.040042747
245	0x3d69c038	0.05706808
246	0x3c74c43a	0.014939362
247	0xbdbd65fd	-0.09247968
248	0xbe779317	-0.24177204
249	0x3da2b332	0.07944335
250	0xbe4e03d8	-0.20118654
251	0xbe3ed43b	-0.18635647
252	0xbeb0d00c	-0.34533727
253	0xbe335156	-0.17511496
254	0xbc81e47b	-0.015856018
255	0xbe1b237e	-0.15150258

lstm.weight_ih_l1 f4 [512, 128]
0	0x3e86d164	0.26331627
1	0xbded4c1f	-0.115867846
2	0x3d9c10bd	0.0762038
3	0x3d9bec86	0.07613473
4	0xbd9b7db2	-0.07592334
5	0xbee0eb4d	-0.4392952
6	0xbd9c255d	-0.07624314
7	0xbbb78a68	-0.005601216
8	0xbd120cb8	-0.03565666
9	0xbdef1f92	-0.116759434
10	0xbddace26	-0.10683851
11	0x3e4d0211	0.2002032
12	0xbf15441f	-0.5830707
13	0xbe8ca49a	-0.2746933
14	0xbdb3db89	-0.087821074
15	0x3d864ce2	0.06557633
16	0x3dfe073f	0.12403726
17	0x3f086fd1	0.5329562
18	0xbe81eb0f	-0.25374648
19	0x3e8dcfd0	0.2769761
20	0x3e133a63	0.14377742
21	0x3d98feb9	0.074704595
22	0xbccf2add	-0.025288993
23	0xbe26f4cd	-0.16304322
24	0x3c85f836	0.016353708
25	0xbe97ba23	-0.296342
26	0x3e0eb4df	0.13936184
27	0x3ec57d99	0.38572386
28	0x3e570ea4	0.21001679
29	0xbe5e85b9	-0.21730699
30	0xbbf06fa7	-0.0073375287
31	0xbdb3c9fe	-0.08778761
32	0x3e835d1a	0.25656968
33	0x3d8bafc8	0.06820637
34	0xbeb8ea42	-0.36116225
35	0x3d02a74b	0.031897824
36	0x3ecf6955	0.4051005
37	0xbeddff34	-0.43358767
38	0xbdba6d98	-0.091029346
39	0x3e087008	0.13323987
40	0xbcfc4d07	-0.030798448
41	0xbda00216	-0.07812898
42	0x3e7c13c2	0.24616912
43	0xb9f10a81	-0.00045974928
44	0xbdc0a21f	-0.09405922
45	0xbe447f05	-0.19189079
46	0xbf3dddf7	-0.74166816
47	0x3ececff1	0.40393022
48	0x3ce212d6	0.027596872
49	0x3b71060a	0.0036777281
50	0xbe05288d	-0.1300375
51	0x3d43877c	0.04773663
52	0xbebae377	-0.36501667
53	0x3ee1ef20	0.4412775
54	0xbe1c9918	-0.15292776
55	0xbe7fa192	-0.24963978
56	0xbe349d55	-0.17638142
57	0xbe879f9c	-0.2648896
58	0x3e162266	0.1466156
59	0x3e399b33	0.1812561
60	0x3e05c82f	0.13064645
61	0x3e91025a	0.28322107
62	0xbdde7b6a	-0.10863383
63	0xbe37502c	-0.17901677
64	0x3da58f06	0.0808392
65	0xbe82c98d	-0.25544396
66	0xbd3bc001	-0.045837406
67	0x3ed0cba3	0.40780362
68	0x3e9811da	0.2970112
69	0x3d69ed1f	0.057110902
70	0x3e101b3b	0.14072888
71	0x3ebcc989	0.3687251
72	0xbe138982	-0.14407924
73	0x3eafba24	0.34321702
74	0x3ec70f44	0.38878834
75	0xbdd24490	-0.102669835
76	0xbd044921	-0.032296304
77	0xbf0bdf8e	-0.5463799
78	0x3ed230e0	0.41052914
79	0x3dd6d122	0.10489108
80	0xbe9c8963	-0.30573568
81	0xbda3e7c3	-0.080031894
82	0xbe0e91fd	-0.13922878
83	0xbe6230f9	-0.22088994
84	0x3f84438d	1.0333115
85	0xbdaec075	-0.08532802
86	0xbe916ae3	-0.2840186
87	0x3d6e975d	0.05824982
88	0x3e150461	0.14552452
89	0x3bc5e0f6	0.0060387803
90	0x3eeab5fd	0.4584197
91	0x3f2ea5ad	0.6822155
92	0x3ebb04cb	0.36527094
93	0x3e13811f	0.14404725
94	0x3e3c7545	0.1840411
95	0xbda96e7e	-0.08273028
96	0x3e768ddc	0.24077553
97	0xbe002eef	-0.12517904
98	0x3e9d3c03	0.30709848
99	0x3dfc1c80	0.123101234
100	0xbebea2ba	-0.37233526
101	0xbdf05be3	-0.11736276
102	0x3e23d221	0.15998127
103	0x3e990b56	0.2989146
104	0xbd75c3ca	-0.060001172
105	0x3e0caca3	0.1373773
106	0xbdf7c9b7	-0.12099021
107	0xbde1c539	-0.11023945
108	0xbf3450c9	-0.7043577
109	0xbd1a82a8	-0.03772226
110	0xbee0cdd5	-0.43907037
111	0xbe84e248	-0.2595389
112	0x3ecc78dc	0.39935958
113	0x3bb55990	0.0055343583
114	0xbe67e0fb	-0.22644417
115	0xbdb0b5d3	-0.0862843
116	0xbe37442b	-0.17897098
117	0xbeaa65f3	-0.33280906
118	0xbf0b09ee	-0.54312027
119	0xbe9050ad	-0.2818655
120	0xbccda61d	-0.025103623
121	0x3f19feb8	0.60154295
122	0x3e140e88	0.14458668
123	0x3e85ab8a	0.26107436
124	0xbe219b8e	-0.15781996
125	0x3e0547b8	0.1301564
126	0x3e60527f	0.2190647
127	0x3c8e8757	0.01739852
128	0xbdce9266	-0.10086517
129	0xbee47393	-0.44619426
130	0x3d5db1a2	0.054124482
131	0x3dad56e6	0.0846384
132	0xbeb73598	-0.35783076
133	0x3e202152	0.1563771
134	0xbd4fe2d9	-0.05075345
135	0x3e92a11a	0.28638536
136	0x3eaef493	0.3417097
137	0xbecb6bb2	-0.39730603
138	0xbeb854f9	-0.3600233
139	0x3e8f405e	0.27978796
140	0xbd9a9f98	-0.07549971
141	0x3e9e754b	0.30948862
142	0x3dba4ad3	0.09096303
143	0xbd0e12a3	-0.034685742
144	0xbeff1417	-0.49820015
145	0x3f0c2ac7	0.54752773
146	0x3ea79083	0.3272744
147	0x3dcbd653	0.099529885
148	0xbe0362de	-0.12830684
149	0x3ea82760	0.3284254
150	0x3e22784a	0.15866199
151	0x3ed6e7e0	0.41973782
152	0xbf2867b8	-0.6578326
153	0x3ed24acc	0.4107269
154	0xbec02769	-0.37530068
155	0xbe4b7da7	-0.19872151
156	0xbeaa1ac6	-0.33223552
157	0xbe687ad6	-0.22703108
158	0xbe02f6ae	-0.12789413
159	0xbe73fdde	-0.23827311
160	0xbdc16dc0	-0.09444761
161	0xbe80a1b9	-0.25123385
162	0x3ea12439	0.31472948
163	0x3cccdcf9	0.025007712
164	0x3c923f8a	0.017852563
165	0xbeaff69e	-0.3436784
166	0x3d119727	0.03554454
167	0x3e9ad7dc	0.30242813
168	0xbddfdc8e	-0.10930739
169	0xbd6b8a3f	-0.05750489
170	0xbee3ca25	-0.44490162
171	0x3d4c54b2	0.04988546
172	0xbdcbd43b	-0.09952589
173	0x3f30842f	0.68951696
174	0xbe0c303f	-0.1369028
175	0x3bdaf644	0.006682189
176	0xbda68833	-0.08131447
177	0xbf115740	-0.5677376
178	0x3b0f8044	0.002189652
179	0xbdbe1ca2	-0.09282805
180	0x3f075e69	0.52878433
181	0x3f2de5c4	0.6792872
182	0xbb2c8cbd	-0.0026329004
183	0x3e3b1094	0.18268043
184	0x3f103f12	0.5634624
185	0x3e9b5b49	0.30343083
186	0x3eee3833	0.46527252
187	0xbc0a3a8c	-0.00843681
188	0xbdd1394e	-0.10216008
189	0xbedccf96	-0.43127126
190	0xbe236c9f	-0.15959404
191	0x3cd6f133	0.02623806
192	0xbec4200a	-0.38305694
193	0xbe43acd1	-0.19108893
194	0xbe2b3ed3	-0.16723184
195	0xbf6c5908	-0.9232335
196	0x3d840be7	0.06447583
197	0xbed794dc	-0.42105758
198	0xbf9dfcc8	-1.2342768
199	0x3e4789eb	0.19486205
200	0xbd93cf09	-0.07217223
201	0xbe0ef4c2	-0.13960555
202	0x3e95c224	0.2924968
203	0x3c33c6a2	0.010972651
204	0x3dd9a6b9	0.10627503
205	0xbea52bb8	-0.32259917
206	0xbe73e57e	-0.23818013
207	0xbd814b7b	-0.06313225
208	0x3ee7aa70	0.4524722
209	0x3e5f1a91	0.21787478
210	0xbdee5a6f	-0.116383426
211	0x3e8be9e1	0.27326873
212	0xbdb08720	-0.08619523
213	0xbbcb0382	-0.0061954865
214	0xbebe42df	-0.37160394
215	0x3ec3d968	0.38251805
216	0xbe8246c5	-0.25444618
217	0x3dbe7ac3	0.09300759
218	0x3dd463f5	0.10370628
219	0xbf457024	-0.7712424
220	0x3e7d7d2d	0.24754782
221	0xbcda1b5b	-0.026624372
222	0xbd26a86d	-0.040687967
223	0x3f07d48f	0.53058714
224	0xbec8a730	-0.39190054
225	0xbda82b5c	-0.08211395
226	0xbe40857a	-0.18800917
227	0xbdca9a22	-0.0989268
228	0xbe50308c	-0.20331019
229	0xbdb73e52	-0.089474335
230	0x3d9fc935	0.07802049
231	0x3e8141b2	0.25245434
232	0x3e41369b	0.18868487
233	0x3e803e58	0.25047565
234	0x3e26acd7	0.1627687
235	0x3d8c20f2	0.06842221
236	0xbe8e5822	-0.27801615
237	0xbd04c79a	-0.032416917
238	0x3e94083f	0.2891254
239	0x3e0d82f6	0.13819489
240	0x3e5c7659	0.21529521
241	0x3ed3b9a8	0.41352582
242	0x3e82a116	0.25513524
243	0xbc107abb	-0.008818324
244	0xbec3670c	-0.38164556
245	0x3e321806	0.17391977
246	0x3f2ea298	0.6821685
247	0xbec7459f	-0.38920304
248	0xb9c9723e	-0.00038422825
249	0xbd23dcbe	-0.040005438
250	0xbf08db9e	-0.5346011
251	0x3e679713	0.22616224
252	0x3e4b150f	0.19832252
253	0xbe487630	-0.19576335
254	0x3c8b88e5	0.01703305
255	0x3d1b6d1d	0.037945855

lstm.weight_hh_l1 f4 [512, 128]
0	0x3ee7a63d	0.45244017
1	0x3e66bbb5	0.22532542
2	0xbf239303	-0.638962
3	0xbe9c3011	-0.30505422
4	0xbdce0ee2	-0.100614324
5	0xbdd293f1	-0.10282124
6	0xbe1f906e	-0.1558244
7	0xbf14dd59	-0.5815025
8	0xbe8e3238	-0.2777269
9	0x3bcae150	0.00619141
10	0x3d82fd09	0.06395919
11	0x3e6c6539	0.23085488
12	0x3df4e159	0.11957044
13	0xbe7164b0	-0.23573565
14	0x3eb763de	0.3581838
15	0xbebc9622	-0.36833292
16	0x3e525f96	0.20544276
17	0x3e197fbd	0.14990135
18	0xbe76ebed	-0.24113436
19	0x3e843995	0.25825182
20	0xbf0bc9cb	-0.54604787
21	0xbf2ef835	-0.68347484
22	0xbe0f98c2	-0.14023116
23	0xbe9ca01d	-0.30590907
24	0xbe8144c1	-0.25247768
25	0xbe1e632d	-0.1546752
26	0xbe70f059	-0.23529185
27	0xbe83d96a	-0.2575181
28	0x3efe6455	0.49685922
29	0xbe8309d1	-0.25593427
30	0xbcc81e69	-0.024428563
31	0x3e71ce11	0.23613764
32	0x3dbe417b	0.09289833
33	0x3d1817e0	0.037132144
34	0xbdb3636b	-0.08759197
35	0x3bd1d864	0.0064039696
36	0xbdce925f	-0.10086512
37	0x3e06353f	0.1310625
38	0x3dc34e3d	0.09536407
39	0xbc7bef3e	-0.015376864
40	0x3e5ac855	0.21365483
41	0xbe99b2ad	-0.3001913
42	0x3d73e77b	0.05954693
43	0xbeb80975	-0.35944715
44	0x3cf96ce4	0.03044743
45	0xbf398297	-0.7246489
46	0x3df069c4	0.11738923
47	0x3eb3e2df	0.35134026
48	0x3ea371cd	0.3192276
49	0x3e95bbcd	0.29244843
50	0x3f0b1b11	0.54338175
51	0xbe33b768	-0.17550433
52	0x3c9539b7	0.018215997
53	0x3e14f3b3	0.14546089
54	0xbf704db2	-0.93868554
55	0xbe099483	-0.13435559
56	0x3ddf12a8	0.1089223
57	0x3e0c5524	0.13704354
58	0x3c94c300	0.01815939
59	0x3e168761	0.1470008
60	0x3f1e946b	0.6194522
61	0x3ee91b42	0.4552861
62	0xbdae5ff6	-0.08514397
63	0x3deac080	0.11462498
64	0x3e91615a	0.28394586
65	0x3ef7f379	0.48427942
66	0x3e0e4d42	0.13896659
67	0xbd29dacb	-0.041468423
68	0xbe62bf22	-0.22143224
69	0xbc2f0b52	-0.010683851
70	0xbd89e538	-0.06733173
71	0xbf43f9d6	-0.76553094
72	0x3f2948d1	0.66126734
73	0xbe5dd94a	-0.2166492
74	0xbe70b332	-0.23505858
75	0x3e0fd635	0.14046557
76	0xbd962674	-0.07331553
77	0xbcdef8c3	-0.027218228
78	0xbeddd045	-0.4332296
79	0xbc130189	-0.008972534
80	0x3ead101f	0.33801362
81	0xbdc86a57	-0.09785908
82	0x3b450350	0.003006179
83	0xbe9a2dc8	-0.30113053
84	0xbea5a210	-0.32350206
85	0x3ec2f89a	0.38080293
86	0xbe96aa52	-0.2942682
87	0xbe5676ca	-0.20943752
88	0x3d08c18a	0.0333877
89	0xbee05dab	-0.43821463
90	0x3e9a6e6e	0.30162376
91	0xbe26278f	-0.16226028
92	0x3e02147a	0.12703124
93	0xbdd8bd3a	-0.10582967
94	0xbe6b6f9d	-0.22991796
95	0x3e69388a	0.22775474
96	0x3e259293	0.16169195
97	0x3e8f6c6e	0.28012413
98	0xbf181393	-0.5940487
99	0xbee58cfd	-0.44834128
100	0x3f049975	0.51796657
101	0x3e59f155	0.21283467
102	0x3e8823c4	0.26589787
103	0x3f09deec	0.53855777
104	0xbebf8835	-0.37408605
105	0x3bbfa9e7	0.0058491114
106	0xbdb665af	-0.08906113
107	0xbd911b7e	-0.07085322
108	0x3e0e42ff	0.13892744
109	0x3ee523dc	0.4475392
110	0x3d8bb382	0.06821348
111	0xbdff58c8	-0.124681056
112	0x3e83eb82	0.25765616
113	0x3d0f9acb	0.03505973
114	0x3d753a36	0.059869967
115	0xbcf7ead4	-0.030263342
116	0x3d274173	0.0408339
117	0xbe87430f	-0.2641835
118	0x3e8cab06	0.2747423
119	0x3a68c102	0.0008878858
120	0x3e78f66a	0.2431275
121	0xbec13e85	-0.3774301
122	0x3d5ad0ac	0.05342166
123	0x3e8da169	0.2766221
124	0xbd524414	-0.051334456
125	0xbe49d568	-0.19710314
126	0xbe59c41e	-0.21266219
127	0x3e2cdd1e	0.16881225
128	0xbe952a17	-0.29133675
129	0xbf2818f9	-0.65663105
130	0x3e3a67db	0.1820368
131	0x3ee17207	0.44032308
132	0xbec7c08f	-0.39014098
133	0x3d11039c	0.035403833
134	0x3d815480	0.06314945
135	0xbe9a6706	-0.30156726
136	0xbf0608b3	-0.52357024
137	0x3f299e69	0.6625734
138	0x3e0739b9	0.13205613
139	0xbd9e5353	-0.077307366
140	0xbee9a176	-0.45630997
141	0xbc961e2d	-0.018324936
142	0x3f150488	0.5821004
143	0xbe84180f	-0.25799605
144	0x3e933ea3	0.28758726
145	0xbd0b08c9	-0.033943925
146	0xbcffe4cf	-0.031237034
147	0xbc97d805	-0.018535623
148	0x3d8303db	0.0639722
149	0x3eec18f9	0.46112803
150	0xbd89f03e	-0.06735276
151	0xbf029046	-0.51001394
152	0x3f3082cc	0.6894958
153	0xbe936176	-0.28785294
154	0xbe8d684f	-0.27618644
155	0x3e46b2c7	0.19404136
156	0xbe4cb437	-0.19990622
157	0xbeda6878	-0.42657828
158	0x3e9cd90b	0.3063434
159	0x3e4a6c07	0.19767772
160	0xbe589fed	-0.21154757
161	0x3f2cd956	0.6751913
162	0x3e9fcf62	0.31212908
163	0xbecb732c	-0.39736307
164	0x3e6b4fbb	0.22979634
165	0xbda28a8c	-0.07936582
166	0x3eb6bd0f	0.35691115
167	0xbd4af579	-0.049550507
168	0xbd35d78a	-0.044395007
169	0xbf111e52	-0.5668689
170	0xbeb114c2	-0.3458615
171	0xbdd4fca0	-0.10399747
172	0xbe272c54	-0.16325504
173	0x3e56ea0a	0.20987716
174	0x3ed1dc48	0.40988374
175	0x3e075c77	0.13218866
176	0x3ead9d2c	0.33908975
177	0x3f51a047	0.8188519
178	0x3ea67697	0.32512352
179	0xbd889779	-0.06669516
180	0xbd86550f	-0.065591924
181	0x3f36abb2	0.71355736
182	0xbf1308c5	-0.57435256
183	0xbd3503cb	-0.04419307
184	0x3d3e34b0	0.046436965
185	0x3da5e03e	0.080994114
186	0xbd7f91e6	-0.062395
187	0xbe99e9fd	-0.3006133
188	0x3e9b4527	0.30326197
189	0x3edee8e6	0.43537062
190	0xbf2d1f67	-0.6762604
191	0x3c60e30b	0.013726006
192	0x3eda470c	0.4263233
193	0x3e2bd912	0.16782025
194	0xbe61be78	-0.22045314
195	0x3dd58960	0.10426593
196	0x3eda0d38	0.4258821
197	0x3f249cae	0.64301574
198	0x3f02ee1a	0.51144564
199	0x3d0f045f	0.034916278
200	0xbc17cfc1	-0.009265841
201	0xbcae9e51	-0.021315726
202	0xbd4f1bf2	-0.05056376
203	0x3f0339f5	0.5126031
204	0x3d3939d7	0.045221176
205	0xbf4e075b	-0.80479974
206	0xbf2835a9	-0.6570688
207	0xbb8cd45d	-0.0042977766
208	0xbd0059b6	-0.031335555
209	0xbea918d8	-0.33026767
210	0x3ecbfc86	0.39841098
211	0xbdc0eed4	-0.09420553
212	0x3efa441c	0.48880088
213	0xbdb66597	-0.089060955
214	0x3e9ea723	0.3098689
215	0xbf295528	-0.66145563
216	0x3e7217a3	0.23641829
217	0xbe7184f8	-0.2358588
218	0x3e24da1b	0.16098826
219	0xbe17398e	-0.14768049
220	0x3e84898f	0.258862
221	0xbda965ba	-0.08271356
222	0xbec65326	-0.38735312
223	0x3f076071	0.5288153
224	0xbe9cd24c	-0.30629194
225	0x3f163111	0.5866862
226	0x3d72fee3	0.05932511
227	0xbe2c7959	-0.16843165
228	0x3ebbe5d2	0.36698776
229	0x3e8d8347	0.2763922
230	0xbe8be2a2	-0.27321345
231	0x3f312a68	0.6920533
232	0xbcf70555	-0.03015391
233	0x3e9283f9	0.28616312
234	0xbde51682	-0.11185934
235	0x3e96de31	0.29466394
236	0xbf40f523	-0.7537405
237	0x3cf4a0e4	0.029861875
238	0x3d166e99	0.036726568
239	0xbf3fe99d	-0.7496584
240	0xbe503289	-0.20331778
241	0x3e1d0d11	0.15337016
242	0xbf296f9e	-0.6618594
243	0xbdcfd283	-0.10147574
244	0xbebf2414	-0.37332213
245	0xbc9846e0	-0.018588483
246	0xbe7d3361	-0.24726631
247	0x3e0b9871	0.1363237
248	0x3d52e67b	0.051489335
249	0x3c2b7ad3	0.010466295
250	0x3e3169a6	0.17325458
251	0xbe666168	-0.22498095
252	0x3f04cff9	0.5187984
253	0xbe7411ea	-0.23834959
254	0xbe7030ff	-0.2345619
255	0xbe5771bd	-0.21039481

lstm.bias_ih_l1 f4 [512]
0	0xbd910f05	-0.07082943
1	0xbeac31aa	-0.3363164
2	0xbeb03061	-0.3441191
3	0xbf195702	-0.5989839
4	0xbe3367e0	-0.17520094
5	0xbe90dfa3	-0.2829562
6	0xbe2f1c69	-0.17100681
7	0xbe919659	-0.2843502
8	0xbf2bc5e6	-0.67098844
9	0xbdade65e	-0.08491205
10	0xbe5884d1	-0.21144415
11	0xbe486633	-0.19570236
12	0xbe5dbf7a	-0.21655074
13	0xbedd1b19	-0.43184736
14	0xbe24342b	-0.16035526
15	0xbee48685	-0.4463388
16	0xbe53be2b	-0.20678012
17	0xbe964de7	-0.2935631
18	0xbeabbceb	-0.3354257
19	0xbe42f3f2	-0.1903837
20	0xbf2e81e7	-0.68166965
21	0xbd962449	-0.073311396
22	0xbdc5644a	-0.09638269
23	0xbed237be	-0.41058153
24	0xbe984fa4	-0.2974826
25	0xbdc1add1	-0.09456981
26	0xbf007963	-0.5018522
27	0xbe5fabbb	-0.21842854
28	0xbee69977	-0.4503896
29	0xbe51bc34	-0.2048195
30	0xbeeafb0b	-0.45894656
31	0xbed5b5be	-0.4174022
32	0xbe8f9e86	-0.2805063
33	0xbdfa2fcd	-0.122161485
34	0xbdf8ed55	-0.121546425
35	0xbed58aa8	-0.4170735
36	0xbeba4116	-0.36377782
37	0xbee5f00d	-0.44909707
38	0xbf02b0a6	-0.51050794
39	0xbf1732e7	-0.59062046
40	0xbf2fe202	-0.68704236
41	0xbe94951d	-0.29020014
42	0x3d9371b1	0.07199419
43	0xbec4807d	-0.3837928
44	0xbf0c0ab4	-0.5470383
45	0xbdcb60cf	-0.09930574
46	0x3d2309ce	0.039804272
47	0xbeedcad5	-0.4644381
48	0xbdd14334	-0.10217896
49	0xbecd77d0	-0.40130472
50	0xbe915c94	-0.28390944
51	0xbe88623d	-0.2663745
52	0xbf43c86d	-0.764777
53	0xbe552696	-0.208155
54	0x3e4040ed	0.18774767
55	0xbecfe694	-0.40605605
56	0xbee17276	-0.4403264
57	0xbead9ed5	-0.33910242
58	0xbef8adbf	-0.48570058
59	0xbf039eea	-0.5141436
60	0xbeed5305	-0.463524
61	0xbf22237b	-0.6333539
62	0xbe059ee5	-0.13048895
63	0xbe9fb434	-0.31192172
64	0x3b415751	0.0029501508
65	0xbeb6a143	-0.35669908
66	0xbe1063b1	-0.14100529
67	0xbf56681c	-0.8375261
68	0xbe918511	-0.28421834
69	0xbdb07fa3	-0.08618095
70	0xbf234f57	-0.6379294
71	0xbea45505	-0.32096115
72	0xbe43f905	-0.19137962
73	0xbf01cce9	-0.50703293
74	0xbe812fd4	-0.25231802
75	0xbdc0ba71	-0.09410561
76	0x3cb9c6fb	0.02267789
77	0xbef0c706	-0.47026843
78	0xbef56f64	-0.47936547
79	0xbed62a1a	-0.41828996
80	0xbe3ce0fc	-0.184452
81	0xbe4e3a2d	-0.2013938
82	0xbf004b73	-0.50115126
83	0xbe45a334	-0.19300538
84	0xbe949156	-0.29017133
85	0xbf4d2dd8	-0.80148077
86	0xbefccec9	-0.49376515
87	0xbd305567	-0.043050196
88	0xbe8c28a6	-0.27374762
89	0xbec11779	-0.3771322
90	0xbf063a9c	-0.5243318
91	0xbe0796d7	-0.13241135
92	0xbed1f3e2	-0.4100638
93	0x3cd3acfc	0.025839321
94	0xbeb739ba	-0.3578623
95	0x3d9aea79	0.07564253
96	0xbeb7130a	-0.35756713
97	0xbeceac1c	-0.40365684
98	0x3c9eae8c	0.01937034
99	0xbe2b750a	-0.16743866
100	0xbf0b7552	-0.5447589
101	0xbf040601	-0.5157166
102	0xbde07f5c	-0.10961792
103	0x3d66d5d6	0.056356274
104	0xbeb7f941	-0.35932353
105	0xbf11ba42	-0.5692483
106	0xbf0bb6ca	-0.5457579
107	0xbe39cfda	-0.18145695
108	0xbeb09d5d	-0.3449506
109	0xbe63847b	-0.22218506
110	0xbea1f14a	-0.316294
111	0xbb2f3faa	-0.0026740828
112	0xbecd04c8	-0.4004271
113	0xbf03d397	-0.51494735
114	0xbeccfd9d	-0.40037242
115	0xbea8b03a	-0.3294695
116	0xbcf2c6dc	-0.02963584
117	0xbef2cf8e	-0.47423977
118	0xbeb20524	-0.34769547
119	0xbd52897e	-0.051400654
120	0xbed75a68	-0.42061162
121	0xbe045e2e	-0.12926552
122	0xbea97785	-0.33099
123	0xbe227f2a	-0.15868822
124	0xbe2bdf20	-0.16784334
125	0xbe44d248	-0.19220841
126	0xbe4fea1f	-0.20304154
127	0xbef57403	-0.47940072
128	0x3ea62718	0.324517
129	0xbbaeb054	-0.0053310785
130	0xbb0dce66	-0.0021637916
131	0x3e34f1c0	0.17670345
132	0xbd1b2d9f	-0.037885305
133	0x3d30d2fb	0.043169957
134	0xbd950880	-0.07277012
135	0x3ede56da	0.43425637
136	0xbe02c6d2	-0.12771156
137	0x3e95724b	0.2918876
138	0x3e06a2fa	0.13148108
139	0xbde6c900	-0.112688065
140	0x3d4aacec	0.049481317
141	0xbeb413f3	-0.3517147
142	0x3e597621	0.21236469
143	0xbd0a6933	-0.033791732
144	0xbd8f9800	-0.070114136
145	0x3db7a578	0.089671075
146	0xbe1ce946	-0.15323362
147	0xbdd473ce	-0.103736505
148	0xbcb8da00	-0.022564888
149	0xbc08fb47	-0.00836069
150	0x3e2fc489	0.17164816
151	0x3eeb4b27	0.45955774
152	0xbc829bd6	-0.015943449
153	0xbd29a454	-0.04141648
154	0xbe2a9a40	-0.16660404
155	0xbea84438	-0.32864547
156	0xbe9831c4	-0.29725468
157	0x3e5073ca	0.2035667
158	0xbe2a51b7	-0.16632734
159	0x3e1bf4e6	0.1523014
160	0x3eff2d59	0.49839285
161	0x3dce4059	0.10070867
162	0x3f057bed	0.5214222
163	0x3d9d7c48	0.076897204
164	0x3df9ef0d	0.122037984
165	0x3e966b76	0.2937886
166	0x3ebf6dcb	0.37388453
167	0x3e8905ef	0.2676234
168	0x3e7d331a	0.24726525
169	0xbe79a66f	-0.24379896
170	0x3eccb1ec	0.39979494
171	0xbe88bfd4	-0.26708853
172	0x3ce6a940	0.028156877
173	0x3e3a6d0c	0.1820566
174	0x3d88330c	0.066503614
175	0xbddcc770	-0.10780227
176	0x3cd89c04	0.026441582
177	0x3f21562f	0.6302213
178	0x3d860850	0.06544554
179	0x3e37633c	0.17908949
180	0x3e5fd093	0.21856909
181	0xbc93082f	-0.017948238
182	0x3ed916ce	0.4240021
183	0x3e697687	0.22799121
184	0xbde619e1	-0.11235405
185	0x3e283c77	0.16429316
186	0x3ed6b720	0.41936588
187	0xbe842b21	-0.25814155
188	0x3ee1144a	0.43960792
189	0x3e3e3dbb	0.18578236
190	0xbb43045a	-0.0029757232
191	0x3e0c9bfb	0.13731377
192	0x3ea3d70a	0.32
193	0xbd800b53	-0.0625216
194	0x3b00d54a	0.001965838
195	0xbe6afc81	-0.22947885
196	0x3f02b834	0.5106232
197	0x3d869434	0.06571236
198	0x3f27e725	0.65587074
199	0x3daa57a0	0.083174944
200	0xbd0390b0	-0.032120407
201	0x3f32e49f	0.698801
202	0xbc857cbb	-0.016294828
203	0x3e8a39ed	0.2699732
204	0x3d7f7cd6	0.062374912
205	0xbd8ec73d	-0.069715954
206	0xbe196708	-0.1498071
207	0x3dd44fbf	0.10366773
208	0xbe754f8c	-0.23956126
209	0xbeb0ae7c	-0.3450812
210	0xbefbb38b	-0.49160418
211	0xbe2b19fb	-0.1670913
212	0xbd1542f7	-0.036440816
213	0x3eab9fd4	0.33520377
214	0xbe2b1c37	-0.16709982
215	0xbe5025f8	-0.20326984
216	0xbdf20fd0	-0.11819422
217	0xbe109ffd	-0.1412353
218	0xbd1477da	-0.03624711
219	0x3e9f19ae	0.3107428
220	0xbc193877	-0.009351841
221	0xbe3abb81	-0.1823559
222	0xbe0d2dab	-0.13786952
223	0xbd9a9257	-0.07547443
224	0x3e02e731	0.12783505
225	0x3e30dc52	0.17271546
226	0xbe6f06c7	-0.23342429
227	0x3e6257f5	0.22103865
228	0x3e2752b1	0.16340138
229	0x3e59c07e	0.21264836
230	0x3f24ca45	0.6437114
231	0x3ebabd56	0.36472577
232	0x3e065481	0.13118173
233	0x3de60a99	0.1123249
234	0xbcfddaf9	-0.030988203
235	0x3c21c628	0.009873904
236	0xbd953a3a	-0.072864965
237	0x3e811628	0.25212216
238	0x3ec026fa	0.37529737
239	0x3e5c5d0c	0.2151987
240	0xbef90fac	-0.4864477
241	0x3e8970db	0.26843914
242	0x3f00785e	0.50183666
243	0x3e02c81e	0.12771651
244	0x3e62f691	0.2216437
245	0xbe063cdb	-0.13109152
246	0x3d31e90d	0.043435145
247	0x3e845da8	0.25852704
248	0x3e97b5d2	0.29630905
249	0x3e4ac0d2	0.19800118
250	0x3e82f86b	0.25580153
251	0x3c24d400	0.01006031
252	0x3d569ae1	0.052393798
253	0x3e198baa	0.14994684
254	0x3ee801e8	0.45313954
255	0x3f0efe7e	0.55857074
